logs/lightning_logs/version_4/checkpoints/epoch=9-step=2150.ckpt (torch, 668716 bytes, 18 tensors)

model.1.weight f4 [64, 784]
000000 fd 1b e5 3c 3a 1b cb bb 24 1e 2d 3b 94 ae d7 3c
       0.027967447 -0.006198314 0.002641567 0.026328363
000010 4a 14 c5 bc 70 d1 fd 3c 87 59 11 3b b3 33 e3 3c
       -0.024057526 0.030983657 0.0022178607 0.027734613
000020 c0 0f 6e 3c 31 23 aa 3b 90 81 9f 3c 27 95 39 3c
       0.014530122 0.0051921834 0.01947096 0.011327065
000030 e6 ff b3 3c 6e 3f bb bb ef 9a e5 3b 3d 23 d0 3b
       0.021972608 -0.0057143485 0.007006995 0.006351857
000040 99 87 71 3c 06 61 1a 3c 9e 0e 27 3d 48 67 a9 3c
       0.014741802 0.009422546 0.040785424 0.020679131
000050 69 c7 74 bb f9 af 44 bc 41 8c 6a 3b f7 5b bf bb
       -0.0037350303 -0.012004846 0.0035789164 -0.0058398205
000060 6d 56 f6 ba eb bb 38 3c 95 c4 fc 3c 9f 61 ed 3c
       -0.0018794067 0.011275272 0.030855456 0.028977213
000070 2e a5 cf bc 54 dd 01 3d 96 17 a0 3c 6e f0 31 3d
       -0.025347319 0.031705216 0.019542497 0.043442182
000080 0b ba 07 3d 87 ce bc bc 68 8f f1 bc b1 b8 94 bc
       0.03313641 -0.023047699 -0.029487327 -0.018154474
000090 88 42 f1 3c 88 ed 06 bb 07 8d 77 3c 40 b8 a7 bc
       0.02945067 -0.0020588357 0.015109307 -0.0204736
0000a0 50 62 ed 3c 46 28 a1 bc 44 65 09 3d c5 85 d7 3b
       0.028977543 -0.019672524 0.03354384 0.006577226
0000b0 04 3c 62 bc b0 c8 be 3c 0a 3a 77 bc 6f b5 3e 3c
       -0.013808254 0.023289055 -0.015089521 0.011639937
0000c0 6c 22 dc bb 3d e5 47 39 02 57 ff bc f7 86 20 bc
       -0.0067179706 0.00019063517 -0.031169418 -0.009797803
0000d0 04 1e ed 3c a8 b2 67 3a 07 e3 38 3d 9c 70 1c 3d
       0.028944977 0.00088385725 0.045138385 0.03819333
0000e0 5f 51 01 3c 4c db 69 bc f2 42 00 3d 89 29 a6 3c
       0.007892936 -0.014273476 0.031313844 0.020283477
0000f0 43 90 62 bc 2e f3 04 3d b6 4b cc 3c f5 d0 a3 3c
       -0.01382834 0.032458477 0.024938446 0.0199971
000100 a9 1c 18 bd 5c 90 bd bc e5 e5 13 bd 20 26 0f bd
       -0.037136707 -0.023140125 -0.036107916 -0.03494847
000110 74 9a 98 bd 6a f4 78 bd 54 4f be 3b 22 03 09 bc
       -0.074513346 -0.060779966 0.0058077965 -0.008362563
000120 e4 a1 a7 3c a3 3a 38 3c 83 ac 4f 3c f2 54 72 b9
       0.020462938 0.011244449 0.012675407 -0.00023110563
000130 7d ac 37 3b fc 7c 9a 3b a7 a4 30 bd 1e bf 8c 3c
       0.0028026395 0.0047146063 -0.043125775 0.017180976
000140 8a 95 96 bc e3 6e 92 bc 37 4d 40 3c 9b 03 64 3b
       -0.018381853 -0.01787514 0.011737159 0.0034792188
000150 35 31 fa 3c 1e 29 36 bc 3d b4 b5 bc 2c 23 0d 3d
       0.030541042 -0.011118202 -0.02218067 0.03445737
000160 19 a7 4a 3b e1 d8 dd 3c 50 ad 27 3c d2 a7 32 bd
       0.0030922352 0.027080955 0.010234192 -0.043617077
000170 d0 93 e3 bc eb 85 28 bd 17 a3 ab bd c3 49 b2 bd
       -0.027780443 -0.04114334 -0.08380716 -0.08705475
000180 b0 94 69 bd 1f 68 37 bd d8 2f 02 bd 0e 46 8b bc
       -0.057026565 -0.044777032 -0.03178391 -0.017001178
000190 05 f3 4c 3d ce 23 cb 3c c0 e6 40 3d a8 c3 d6 3c
       0.05003645 0.024797346 0.04709506 0.026216343
0001a0 29 f6 ea bc f3 31 4e bd f2 ce 30 3c 97 02 71 bc
       -0.028681831 -0.050340604 0.010791527 -0.01471009
0001b0 55 1c b6 3c 44 70 85 3c e3 cf ac 3c c5 72 14 3d
       0.022230307 0.016288884 0.021095222 0.036242265
0001c0 aa e3 31 3d c5 a9 67 bc 51 9c 64 3c 78 51 12 3d
       0.043430008 -0.014139597 0.013953284 0.035722226
0001d0 bc 1f 0c 3d 3a 19 e7 3c 3e 95 ef bc 25 f0 29 bd
       0.03420995 0.028210271 -0.029245969 -0.041488785
0001e0 4b b4 5b bd 74 25 15 bd 37 9a c5 bc e6 9b 99 bd
       -0.053638738 -0.03641267 -0.024121387 -0.075004384
0001f0 63 bd d6 bc a8 68 2e bd ec 8f 49 bd 62 85 b7 bc
       -0.026213353 -0.042580277 -0.04920952 -0.02240247
000200 68 5c 06 3d 62 28 82 3d 24 f2 7b 3c 47 61 26 3d
       0.03280297 0.06355359 0.015377555 0.040620115
000210 20 51 1f 3d 05 a7 bf 3c fd 99 2f 3c 4d 87 f4 3c
       0.038895726 0.02339507 0.010717866 0.029849673
000220 b0 c8 19 3d 0c 7f 33 3c 80 a7 ad bc 71 18 b7 bc
       0.037544906 0.010955583 -0.021198034 -0.022350522
000230 fd d0 de bb 3c 28 b1 3b 42 e3 4c bc 8b d7 bb 3c
       -0.0067998157 0.0054064076 -0.012505354 0.022929927
000240 c2 a9 be 3c 48 7d 62 3c d1 81 d8 3c 12 85 5c 3c
       0.023274306 0.013823815 0.026429089 0.013459461
000250 9d da 1b 3c 74 6b 94 3c 97 ed de bc ae 60 f1 39
       0.009512571 0.018117644 -0.027212901 0.00046039134
000260 b0 d8 2f bd 40 0f 35 bd 49 bb 4e bd 90 a2 b9 bc
       -0.04293126 -0.044203997 -0.050471578 -0.022660524
000270 60 60 05 3c ac a2 d0 3c b0 39 74 3d ca eb 08 3c
       0.008140653 0.025468193 0.059625328 0.008356998
000280 0d 1d 90 bc 50 4b 02 3d a3 22 49 3d 49 28 91 3d
       -0.017591977 0.031810105 0.049105298 0.07087762
000290 0c 49 30 3c fa b4 51 3c cf 58 0c bc d1 29 36 3a
       0.010759603 0.012799496 -0.0085660955 0.000694898
0002a0 28 cc 9a bc 15 f8 db bb 87 08 e5 ba b4 8b ba 3c
       -0.018896177 -0.0067129233 -0.0017473855 0.022771694
0002b0 69 0e ea 3c 87 df 2e 3d ca a1 7d 3d 3d 8c 59 3d
       0.028571324 0.04269364 0.061921872 0.053112257
0002c0 b4 f6 e0 3c 7d b4 d1 3b 1c 45 33 bd 22 ee a7 bc
       0.027461387 0.0063996897 -0.04376708 -0.020499293
0002d0 04 f4 89 bd 38 40 9c bd 8d ca fd bd c6 5a cf bd
       -0.067359954 -0.07629436 -0.12392149 -0.101247355
0002e0 ea fa d1 bd ba ba d9 bc 3d 8f 81 bd fc 95 19 bd
       -0.10252936 -0.026578296 -0.06326149 -0.037496552
0002f0 3f 5c a3 bb 92 b4 87 bb 0b ec 84 3d 17 14 54 3d
       -0.004985362 -0.0041413987 0.06490334 0.05177697
000300 f9 b5 dc 3c ee 88 b5 3c 2a 90 32 3d 41 26 7f bc
       0.02694224 0.02216002 0.043594517 -0.015573085
000310 98 b3 d7 3c a2 d2 04 3d 2b bd 34 3d 87 1d 81 bc
       0.026330754 0.032427438 0.044125717 -0.01576115
000320 22 09 f6 3c 0b ee 87 3b 12 98 3d 3d 99 5b 3a bb
       0.030033652 0.00414825 0.046287604 -0.0028435944
000330 4f bb 2f 3c ea da 51 bc 4e f3 ea bc b5 c7 36 bd
       0.01072581 -0.012808541 -0.02868047 -0.04462405
000340 90 5b 8b bd c9 c0 87 bd 80 ac ce bd 8b eb ca bd
       -0.068045735 -0.06628568 -0.100914955 -0.099082075
000350 41 ae 02 be 70 a3 3c bd d8 50 bc bc 1a a9 19 ba
       -0.12761785 -0.046054304 -0.022987768 -0.0005861685
000360 29 06 1e 3c 4f b7 48 bc d7 33 ed 3c 4b 20 b5 3d
       0.009645023 -0.012250735 0.028955383 0.0884405
000370 96 7a a1 3c 2e c1 94 3d 43 43 51 bb 5d 0d 81 bc
       0.019711774 0.072634086 -0.003193096 -0.015753442
000380 f4 9f dc 3c e9 f3 85 bc 23 21 e4 3a 5f 16 01 3d
       0.02693174 -0.016351657 0.0017404895 0.031515475
000390 c9 c9 0d 3d 90 cc 33 3d 21 f5 c0 bc 74 a5 2e bd
       0.034616265 0.043896258 -0.023554387 -0.042638257
0003a0 61 49 0d bb 37 48 a5 bc 66 ef 09 bd e4 6b e2 bc
       -0.002155863 -0.020176036 -0.033675574 -0.027639337
0003b0 aa 05 96 bd 8a 64 30 bd 1c c7 bd bd c6 23 14 be
       -0.07325299 -0.04306463 -0.09266493 -0.14466771
0003c0 b7 ce df bd f8 89 01 bd 8e 41 1c 3c 12 51 a3 3b
       -0.109280996 -0.031625718 0.009537114 0.0049840296
0003d0 11 d0 9e ba c3 df 9d 3c d7 de 35 bb 5f 79 d2 3c
       -0.0012116452 0.019271737 -0.002775123 0.02569264
0003e0 45 bc a9 3c bf df a6 3d 11 83 2d 3d c4 4d ab bb
       0.020719657 0.08148145 0.042361323 -0.0052277762
0003f0 ea 4e 36 3c 4a 14 d0 3c dd b7 60 3c a5 ea 9a bc
       0.011127213 0.0254003 0.013715711 -0.018910715

model.1.bias f4 [64]
000000 d0 e7 ce bc 49 41 22 3d c5 db c1 bb 2f 61 83 3b
       -0.025257021 0.039613042 -0.005916091 0.004009388
000010 73 36 00 bd 21 61 14 bc 23 d2 53 bc 19 9d b7 3c
       -0.031301927 -0.00905636 -0.0129285185 0.022413777
000020 48 ee 47 3d 79 15 a8 bb cb 2f 07 3d f1 70 1b 3d
       0.048811227 -0.005129513 0.033004563 0.037949506
000030 e9 36 a2 bc 61 56 6f bc fd 23 07 bd 23 7a 07 bd
       -0.019801574 -0.014607997 -0.032993305 -0.033075463
000040 20 63 0e bc 4e 7b 4c 3c 27 68 ef bc 5c 08 40 bb
       -0.008690625 0.01248057 -0.029224468 -0.0029301858
000050 8d 7a ed 39 0e 95 6a 3c 94 b5 e7 3c 6d 51 34 bd
       0.0004529547 0.014317764 0.028284825 -0.044022966
000060 43 15 00 3d 8d a7 a9 bc be 2f c6 3a ed fe 79 bc
       0.031270277 -0.020709777 0.001512043 -0.015258533
000070 a7 1e f8 3c 80 27 61 3c 43 c7 24 3d 74 2c 1d 3d
       0.030288054 0.013742328 0.040229093 0.038372472
000080 67 9e f3 3b e3 da c0 bb 51 9e 42 b9 8d 02 24 bb
       0.0074346545 -0.0058854683 -0.00018560259 -0.0025025934
000090 57 27 e2 bc 2e 60 3b 3b 0f 1a 61 bc ee d4 86 bc
       -0.02760665 0.0028591263 -0.013739123 -0.016458955
0000a0 82 31 aa bc d4 62 ce 3c 7e 71 4d bc 0d 42 ca bc
       -0.02077556 0.02519361 -0.012539266 -0.024689699
0000b0 07 a8 fb bc c6 d6 a1 3c 78 9c 5a bb 73 ff ba 3a
       -0.03071977 0.019755732 -0.0033357423 0.0014266804
0000c0 1f a4 2e 3c 23 40 24 3d cd e8 68 bc 0d 0a fe 3c
       0.010659247 0.040100228 -0.01421566 0.031010652
0000d0 d8 01 a0 bc 21 70 e4 3c 7e f6 a4 3c 63 cf c7 ba
       -0.01953213 0.027885498 0.020137068 -0.0015244301
0000e0 db cf bd bb 54 16 6b bc d1 cb 0c 3d 47 f2 ea bc
       -0.0057926006 -0.014348585 0.034374062 -0.02867998
0000f0 87 cf a1 3c 2d 11 de bc 0c 02 0e 3d d4 c7 31 3c
       0.019752277 -0.0271078 0.03466992 0.010850865

model.4.weight f4 [64, 64]
000000 85 51 3a be 98 33 c4 3d b6 5e 0e 3e 5b 53 22 be
       -0.1819516 0.09580153 0.13903317 -0.1585211
000010 78 e7 8d bd a4 31 c0 3d 34 5e f4 3d 04 42 85 3d
       -0.06928915 0.09384468 0.1193203 0.06506732
000020 32 47 f1 3d 6c 65 84 3d 62 2c c9 3d 22 f9 12 bd
       0.117811576 0.06464657 0.098229185 -0.035882123
000030 28 8f 34 bd 69 7f 73 bd 91 6e b3 3b de 2f 68 3e
       -0.044081837 -0.05944768 0.005475827 0.2267451
000040 38 b8 8c 3d 65 43 9b 3d f1 ff de bd b1 12 ca 3b
       0.068710744 0.07581214 -0.10888661 0.006166779
000050 02 8b f8 3d e5 aa 51 3c 55 c6 98 bd ab 6f 82 bd
       0.12135889 0.012797092 -0.07459704 -0.06368955
000060 c5 d0 44 3b c9 01 b4 bc 0e a8 52 3d 33 85 73 3b
       0.0030031663 -0.021973507 0.0514298 0.003715825
000070 54 1a 06 3d 0e 4d 2b be 99 53 14 3e 9b 0a 43 bd
       0.032739952 -0.16728613 0.14485015 -0.047617536
000080 af d9 e8 3d f9 ff 51 bd bd 09 cb bd 5b 6f ca 3d
       0.11369645 -0.051269505 -0.09913967 0.098845206
000090 2f eb 8f 3d e9 e4 2c 3e 51 bf 11 3d ce be ba bd
       0.070272796 0.16884197 0.035582844 -0.09118424
0000a0 bb d3 18 3d 29 a6 23 be 54 d1 20 bd 73 65 06 bd
       0.037311297 -0.15981354 -0.03926213 -0.032811593
0000b0 c2 79 86 bd 08 8b eb 3d 3d de 1d bc 81 da 01 be
       -0.06566192 0.115011275 -0.009635505 -0.12681009
0000c0 c4 05 dd bd 2f 69 36 3c eb 0f 28 bd 85 a3 06 3e
       -0.10792115 0.011133476 -0.041030806 0.13148315
0000d0 8d d8 ac bc 7f 3d 2c bd 31 85 fb 3c f1 74 83 3c
       -0.021099353 -0.042050835 0.030703159 0.016046973
0000e0 bd 3a 17 39 95 f0 8c bd 5a 94 19 be 2a e8 c6 bd
       0.00014422364 -0.06881825 -0.14997998 -0.097122505
0000f0 86 1d 2f be a8 04 88 3d 9e db a0 3d 12 c8 c1 3d
       -0.17101106 0.06641513 0.07854389 0.094619885
000100 86 58 41 3e 2f 30 bd 3d 72 39 57 3d 34 14 40 3e
       0.18881425 0.09237706 0.05254502 0.18757707
000110 6a 50 b1 3c a4 74 38 3d 77 49 2c 3d e5 6e e0 bd
       0.02164479 0.045033112 0.04206225 -0.109586515
000120 75 da f1 3d 26 ee 51 3c 02 e4 2c 3e fe 04 e7 3c
       0.118092455 0.012813127 0.16883853 0.028200623
000130 b8 dd b1 bd 72 64 34 3e de 69 04 3e 5d 68 81 bd
       -0.086848676 0.17616442 0.1293101 -0.06318734
000140 f3 bb 62 3d 90 77 06 be 40 08 97 bd fa 06 f7 bc
       0.055355024 -0.13131547 -0.073746204 -0.030154694
000150 5a 75 bd bc b2 97 60 bc 0a e9 35 bb 3b 1f 88 bd
       -0.023127247 -0.013708042 -0.002775731 -0.06646582
000160 bd f1 0f 3e 37 83 b3 bd 60 4e 16 be c8 bf f7 3d
       0.1405706 -0.087652616 -0.14678335 0.12097126
000170 7e 7e f1 3c 43 e1 4e 3d 31 52 a1 3d 9b e7 eb 3d
       0.029479261 0.050507795 0.07877005 0.115187846
000180 ca 68 ed bd 29 29 84 bd 84 2e 78 be 4a 48 19 be
       -0.115922526 -0.06453163 -0.24236494 -0.14968982
000190 88 0d 18 be 59 a6 b6 bd a4 91 6b 3d cb d6 b1 bd
       -0.14848912 -0.08918447 0.05751194 -0.08683547
0001a0 fb 70 1e 3c d3 01 f9 3d 15 21 07 bd 09 00 d1 bd
       0.009670491 0.12158551 -0.032990534 -0.10205085
0001b0 3c ea 03 bd 01 44 13 bc b5 e9 a7 3d 91 b0 c5 3c
       -0.032205805 -0.008988381 0.08198873 0.024132045
0001c0 34 21 20 3e ca 0e 1f be 41 db 0d 3e 85 c0 61 bd
       0.15637666 -0.15532985 0.1385317 -0.05511524
0001d0 d7 96 d6 bd fe d2 fd bc cb 5f c3 3d ee db a9 3d
       -0.10477989 -0.030984398 0.095397554 0.082939014
0001e0 6e cc 16 bd 61 51 0c 3e 1e 6b ad 3d a7 60 85 3d
       -0.036816053 0.13702919 0.084676966 0.065125756
0001f0 4d 95 98 bd 40 0f 4e bd 03 dc 0f 3d c4 32 13 3e
       -0.07450352 -0.050307512 0.03512193 0.14374834
000200 72 f1 92 3c 77 48 56 3d 0f ef 82 bd 43 36 f4 bc
       0.017937396 0.0523152 -0.06393253 -0.02981103
000210 b2 29 9b 3c 34 a9 ee 3d 1c 24 37 3d 90 48 76 bd
       0.01894078 0.11653367 0.04471217 -0.060127795
000220 ec e4 05 3e 6d 08 bb 3d 9d 73 87 bc ca 77 7c bc
       0.13075608 0.091324665 -0.01653462 -0.015409419
000230 29 38 c2 3d f0 09 27 bd 73 b0 47 bd 4a fc 98 3d
       0.09483368 -0.04078096 -0.04875226 0.07469995
000240 51 7d fe bd a9 c7 91 3d c1 a9 81 bb 89 53 28 3e
       -0.12426246 0.0711816 -0.003957004 0.16438116
000250 55 3c 47 bd 2e 42 0f 3e 1e ac 04 3e 6d d2 5f be
       -0.04864152 0.1399009 0.12956282 -0.21857615
000260 97 80 ce 3c ae 56 c3 bd 8f f0 3c bd 0a 0f 01 3e
       0.0252078 -0.09538017 -0.046127852 0.12603393
000270 9c 24 80 bd ec 1b d6 bd 44 ed 64 3d c7 8c 9e 3c
       -0.06256983 -0.104545444 0.055890337 0.019354237
000280 da 0d 22 3d fa 12 db 3d a2 54 d3 bd c1 76 d9 bd
       0.03956399 0.10696979 -0.10318877 -0.10618354
000290 79 da 0a 3c 6a 03 a9 3d cc 8c 55 be fa af 8a 3c
       0.0084749395 0.08252604 -0.20854491 0.016929615
0002a0 af 8c 31 3e 37 2b f7 bd 0d d9 90 3d 21 a0 7e bd
       0.17338823 -0.120687895 0.07072649 -0.06216443
0002b0 60 7c 4c 3e 7d 9d ae 3d 61 12 1d bc 57 11 ad 3d
       0.1996932 0.08526132 -0.009586901 0.08450573
0002c0 c3 aa 5d 3d 59 e6 b1 3d c4 c5 f7 3c 7e 0f e6 bd
       0.05411793 0.086865135 0.03024567 -0.11233424
0002d0 3d a5 0a be 3d 17 df 3b b7 4b 7d bc 90 df 42 3d
       -0.13539596 0.00680819 -0.015459946 0.047576487
0002e0 89 a1 54 3d fd 9d a7 3d 77 a2 3c be 03 fa 33 3c
       0.051911864 0.08184431 -0.1842135 0.0109849
0002f0 65 4f fc bd 30 4a 82 bd c6 a0 3f 3e 87 20 bb bd
       -0.12319831 -0.063618064 0.18713674 -0.091370635
000300 4a b8 25 be e6 45 81 3c 1a fb a2 3d 57 af 8f bd
       -0.16183582 0.0157804 0.0795805 -0.07015865
000310 64 7b 9a bd c2 42 d3 bd 50 54 c7 bd 53 39 45 3d
       -0.07543066 -0.103154674 -0.09732878 0.04815037
000320 53 ca a8 3d 63 3a 7d bd 49 7e 19 3e 59 98 2f 3c
       0.08241715 -0.06182326 0.1498958 0.010717475
000330 b5 11 63 3d 91 09 bc 3d 95 68 ce bd 33 c2 77 3d
       0.05543681 0.09181512 -0.10078541 0.060487937
000340 d0 3e 8e 3d 10 bd dd 3d 2f 9c 2e bd 79 be 99 bd
       0.06945574 0.108270764 -0.042629417 -0.07507033
000350 66 3b 20 bd 67 71 22 3d 2c f3 dd 3c f3 da 1e 3d
       -0.039119147 0.03965893 0.027093492 0.038783025
000360 51 ad 9d bd 70 85 26 bd 32 2c 0a bb b6 51 84 bd
       -0.07699073 -0.0406546 -0.0021083471 -0.064608976
000370 d4 33 a6 bd de 3c ad bd 24 20 81 3d 55 81 84 bd
       -0.08115354 -0.08458875 0.063049585 -0.064699806
000380 1e 04 ee 3c 9f f9 e8 bd f9 7e 4d 3e 9b 7c a4 3d
       0.029054698 -0.113757364 0.20067967 0.08031579
000390 1f 0c 9d 3d e1 2b fb bc 27 8a 09 be 87 a4 b3 3d
       0.076683275 -0.030660572 -0.13431607 0.087716155
0003a0 7b 77 cc ba cb 69 da bc c4 91 be 3d 0e a0 6b 3e
       -0.0015599573 -0.026661774 0.09305146 0.23010275
0003b0 3a cf 2b 3d 60 18 22 3e 2b fe f5 3c b6 6b 11 bd
       0.041945674 0.15829611 0.030028423 -0.03550311
0003c0 66 00 44 bd ec 01 1b 3d a7 38 1b 3e 72 71 17 be
       -0.047851942 0.03784363 0.1515833 -0.1478937
0003d0 f4 07 08 bd 0d 11 1d be ab c6 1e 3e a4 b4 9d 3d
       -0.03321071 -0.15338536 0.15505473 0.0770047
0003e0 fe fc 88 bd 02 3b b8 3d af 85 f5 3a 6a f5 ce bd
       -0.066888794 0.0899563 0.0018731857 -0.10105403
0003f0 9d 74 59 3d 33 80 97 3d c1 fe 0a be f1 0b 11 3e
       0.053089727 0.07397499 -0.13573743 0.14164712

model.4.bias f4 [64]
000000 e7 e4 96 3d 82 63 c2 3d ac 17 00 3d 5d 9b 56 3d
       0.073678784 0.09491636 0.031272575 0.05239426
000010 1f 6a 9f bc 4b b7 ee 3d 27 20 fe 3b 1f 53 0e 3d
       -0.019459782 0.11656054 0.0077552977 0.03474724
000020 44 e0 65 bc c2 e1 8f bc cc 9e 8f bd ee 17 59 3c
       -0.01403052 -0.017563704 -0.0701271 0.013250334
000030 96 04 ce bc 79 0d 03 3e 65 82 93 3c e8 53 8b bd
       -0.025148671 0.12798108 0.018006513 -0.06803113
000040 b7 df ed bb ce ac df 3c f4 33 58 bb 17 be af bd
       -0.007259335 0.02730408 -0.003298995 -0.08581179
000050 04 10 b1 3c 8f ff ec bd 28 f6 b6 3d 58 46 2d bd
       0.021614082 -0.115721814 0.08933669 -0.042303413
000060 e3 8a 0d 3e 95 cc a0 3d ca e4 b7 3d e8 33 03 3e
       0.13822512 0.07851521 0.08979185 0.1281277
000070 a7 ee 0f bc 35 34 b8 3d fb 66 a0 b8 c3 d2 7f 3d
       -0.0087849265 0.08994333 -7.648576e-05 0.062456857
000080 0f 5c 52 3c a8 78 ee 3d 81 4b 15 3e 19 3d 4a bc
       0.012839331 0.11644107 0.14579584 -0.012343668
000090 84 13 63 3d 08 11 09 bb d0 92 03 3d 01 a6 69 3d
       0.055438533 -0.0020914692 0.032122433 0.05704308
0000a0 f0 a8 37 3d 0f 6b fe 3b 3a b8 cd bc 92 16 07 3e
       0.044838846 0.007764227 -0.02511226 0.13192204
0000b0 40 4e d8 3d f2 62 92 bd a7 a5 1e 3e a7 b9 a8 3d
       0.105618 -0.071477786 0.15492879 0.082385354
0000c0 c2 a7 c5 3d 85 c7 fe 3d f2 e9 e4 3c 29 7c 8d 3d
       0.09651138 0.12440399 0.027943585 0.06908447
0000d0 69 39 0b 3d 37 a0 d9 3d fb c6 8b bd 40 91 07 3e
       0.033990297 0.10626262 -0.06825062 0.13239002
0000e0 c6 53 8d 3d a7 2a 99 bd d9 ef 2d bd 07 8c 1a 3d
       0.06900744 -0.074788384 -0.042465065 0.037731197
0000f0 a5 f0 eb bd 3c bd a2 bd 04 e8 c9 3d a4 63 e1 bc
       -0.11520509 -0.0794625 0.098587066 -0.027513333

model.7.weight f4 [10, 64]
000000 1f 54 b4 bd 97 0b 54 be 94 df 7a bb b0 f4 99 3d
       -0.08805107 -0.20707546 -0.0038280236 0.075173736
000010 9d 90 ec 3d 7a 55 ce 3c 08 71 b2 3d 53 e8 8d 3d
       0.1155102 0.025187243 0.08712965 0.06929078
000020 9c 19 df bd 9d fa df bd fd b9 4f be 81 30 b3 3d
       -0.108935565 -0.109364726 -0.20285793 0.08749486
000030 72 98 0d bd 3c ac 22 3e d0 fb f5 bd a7 9e 1a 3d
       -0.03456921 0.15886015 -0.1201092 0.03774896
000040 a1 42 0c be 1f f5 85 bd 76 e2 22 be c7 f9 a2 3d
       -0.13697292 -0.06540894 -0.159067 0.079577975
000050 8a 3b 89 bc 95 40 4d bc 4a 2b cc bd b7 61 5d 3c
       -0.016752023 -0.012527605 -0.09969194 0.013512067
000060 aa a4 61 be bc 8d 0b bd 91 97 28 3c 2e 3a 95 3c
       -0.2203547 -0.034070715 0.0102900425 0.018216219
000070 cc e3 1a be eb 3e d8 3d dd f1 22 3e b7 62 d7 3d
       -0.1512596 0.10558876 0.15912576 0.10516875
000080 a3 6d bf bd 4a c6 6f be dc a0 d7 bd 03 9d 20 be
       -0.093470834 -0.23415485 -0.10528728 -0.15684895
000090 34 9a ae bd c4 95 d6 bd ed e7 52 be 74 58 11 be
       -0.08525506 -0.10477784 -0.20596285 -0.14193898
0000a0 41 f0 18 be 4a 91 a2 3d aa 4e 3d be 6a c3 a1 3d
       -0.149354 0.07937868 -0.18487039 0.078986004
0000b0 ec 32 c6 bd 8b d5 bf 3c 4b e8 67 3d dd b1 1c 3e
       -0.09677681 0.023417255 0.056618016 0.15302224
0000c0 18 26 18 3e 03 b7 ff 3a 21 6a 1a be 12 1d cd bd
       0.14858282 0.0019509498 -0.15079547 -0.1001531
0000d0 0d b8 84 bd 69 13 aa bd 69 fe cb bd 85 3c e8 bd
       -0.064804174 -0.083044834 -0.09960634 -0.11339668
0000e0 b0 32 9d 3d c1 25 c5 3b 7c dd 02 be d7 4b f9 3d
       0.076756835 0.0060164635 -0.12779802 0.121726684
0000f0 5e 2b 87 3d e7 98 03 3e 86 35 e7 3d ff a0 f2 3d
       0.066000685 0.12851296 0.11289506 0.11847114
000100 0e ac 5c bd 76 9b 18 bc ca 1f b2 3b 47 3f 69 3d
       -0.05387502 -0.0093144085 0.0054359185 0.05694511
000110 53 92 01 be d2 9d eb 3d 8c 73 83 3d a2 76 0e be
       -0.12653475 0.11504711 0.06418523 -0.13912442
000120 b5 93 14 3b 08 dc f7 bd e5 39 10 be 43 20 90 bd
       0.0022671048 -0.121025145 -0.14084585 -0.070374034
000130 26 3d 62 bd 80 3e 36 be 00 c5 a9 3d 1c fd fb b9
       -0.055234097 -0.1779728 0.08289528 -0.00048063032
000140 9d 2b b7 3d 62 d6 68 be a3 47 11 3e 2c 2a 83 3c
       0.089438654 -0.2273803 0.14187483 0.01601132
000150 32 17 1f 3e 28 09 88 bd 01 ff 13 be 59 37 94 3d
       0.15536192 -0.066423714 -0.14452745 0.07237119
000160 b0 c8 bb 3d cd 95 49 3e 86 d6 1b bd 2f 0a ee bd
       0.091691375 0.1968605 -0.038046382 -0.11623036
000170 c9 18 e5 3d 8a 4c 09 be 06 b8 f9 3c 1b 05 a1 bd
       0.11186368 -0.13408104 0.030483257 -0.07862302
000180 84 e0 a9 bd 5a 1d 0a 3e 07 9a 54 3d fd 98 69 3d
       -0.08294776 0.13487759 0.051904704 0.057030667
000190 07 7e d1 3d c9 b1 b4 3d 78 57 d4 3d 34 2f 95 bd
       0.10229116 0.08822972 0.10368246 -0.07284394
0001a0 30 60 4f 3d 1e c9 06 be fe 30 e5 3d db da fb bd
       0.05062884 -0.13162658 0.11190985 -0.12297603
0001b0 08 2a 4b be ec 98 12 3e bb 42 26 3e 47 e6 a7 bd
       -0.19840252 0.14316148 0.16236393 -0.08198219
0001c0 93 be 20 be f9 83 e4 bd 65 f5 85 3c ec b8 31 be
       -0.15697698 -0.11157984 0.016352365 -0.17355698
0001d0 fa 0c 88 3c ff 0c 07 3e 03 96 51 be fd 75 5b 3b
       0.01660775 0.13188551 -0.20467381 0.0033487075
0001e0 4b b2 2d be 0d b5 33 3d 55 fd f8 bc 05 6e a1 bd
       -0.16962545 0.043873835 -0.030394236 -0.07882313
0001f0 6e f2 04 be b2 af 1d be 06 26 c4 3d 21 9d 74 bd
       -0.12983105 -0.15399054 0.09577565 -0.059720162
000200 e5 2c 78 3c 93 98 3e 3e 89 88 06 3e 72 51 4b 3d
       0.015147422 0.1861289 0.13138022 0.04963822
000210 bb 87 6d bc e2 d1 80 3c 8b ee 42 bd e6 34 24 3d
       -0.014497693 0.01572508 -0.047590774 0.04008951
000220 9b fb 3e 3e 40 aa 02 bc 07 90 44 bd 96 de 02 be
       0.18650667 -0.007975161 -0.047988918 -0.12780222
000230 fd 85 19 3d 3e 61 90 3d da 3f 1f 3e c1 6b 90 3d
       0.037481297 0.070497975 0.15551701 0.070518024
000240 4a e1 0a 3e e4 f4 55 be 61 b7 8d 3d 6d 89 1d bc
       0.13562503 -0.208942 0.069197424 -0.009615284
000250 29 91 08 3d d7 f2 81 3e 29 0f 4a 3e f5 00 c9 bd
       0.03334156 0.25380585 0.19732346 -0.09814636
000260 b8 78 92 bd ab 0f a5 bb 75 6f b9 bd 9e 03 0b 3e
       -0.071519315 -0.005037268 -0.09054462 0.13575599
000270 84 1c c8 3c 18 a1 43 bb d9 dd 99 bd fd 49 0d 3d
       0.02442766 -0.0029850658 -0.07513017 0.03449439
000280 db e3 86 3d d4 c8 71 be dd 46 51 be f5 b4 61 3c
       0.06586429 -0.23611766 -0.20437188 0.013776054
000290 32 64 87 3a 84 ce 19 3d 16 0c 2c be 1c 81 24 bb
       0.0010329543 0.037550464 -0.16801485 -0.002510137
0002a0 41 ba d1 bc af fb cf bd 7c fc 53 bd 67 27 ce bd
       -0.025601508 -0.10155427 -0.05175446 -0.10066109
0002b0 09 ba a7 bd 1a 8b 0c 3e fe 15 5a be cf dc 1a bc
       -0.0818978 0.13724938 -0.21297452 -0.009452059
0002c0 4d b8 2e bd be 90 13 3e 54 fc ed 3c ac e4 4d be
       -0.04265623 0.14410684 0.029050983 -0.20106763
0002d0 5c d3 81 3d 5e ad fb bd 85 1c 94 bd ff 23 cf bb
       0.06339142 -0.122889265 -0.07232002 -0.0063214297
0002e0 7d 21 01 bd ff 1b b0 3d 80 a7 e7 3d 25 6e a8 3d
       -0.031526078 0.0859909 0.11311245 0.082241334
0002f0 46 2b b6 3d 36 ba f2 bb 09 1e b1 bd 93 30 2a bd
       0.088949725 -0.007407452 -0.08648307 -0.04155023
000300 27 ef dd 3d 92 ab 89 bd 06 77 f5 3d 3d 3a 2d be
       0.1083663 -0.067221776 0.119855925 -0.16916747
000310 3d a2 3b be c0 7f 22 bc f9 81 da 3c 25 c9 04 bd
       -0.18323608 -0.009918153 0.026673304 -0.03241839
000320 e8 fc ce bd 05 1d 86 bd 5a 30 72 3b bd d5 b8 3d
       -0.10106832 -0.06548504 0.003695509 0.09025142
000330 26 a3 c4 bd 7a d4 31 be b9 bb b7 3d 17 15 30 bc
       -0.096014306 -0.1736621 0.08971352 -0.010747216
000340 bf 45 17 3e a2 3a ac 3d fc 75 28 be 19 81 a7 3c
       0.147727 0.08409621 -0.16451257 0.0204473
000350 0d ec c0 bd 30 51 eb bd 4f 67 07 be e6 c6 94 bd
       -0.09420023 -0.11490095 -0.13223003 -0.07264499
000360 eb b9 de 3c 00 9c 5f be a1 28 09 3d 2f 73 9a 3c
       0.027188262 -0.21836853 0.033486012 0.018853752
000370 3d 8b fb bd fa 1f 3f bd 65 b3 54 be 92 05 bc 3d
       -0.12282417 -0.046661355 -0.20771559 0.0918075
000380 d6 d0 de 3c ca a5 98 3d c1 82 b2 bc 89 51 11 3b
       0.02719919 0.07453497 -0.021790864 0.0022173843
000390 38 36 70 3d 60 f2 e9 3d 0e 98 11 be bf 8f a5 3c
       0.058645457 0.114231825 -0.1421816 0.020210145
0003a0 ea ae fc bd 8e 63 dc 3c 83 5b 1b be 88 2c 1e be
       -0.1233805 0.02690294 -0.15171628 -0.15446675
0003b0 9e 0e fa 3d 7a a6 ea 3c 8a 3f 8d 3d 39 86 6a be
       0.12209819 0.028643835 0.06896885 -0.22902764
0003c0 21 a8 35 3d fb 28 a9 3d e5 57 6d bd 69 28 39 be
       0.044349793 0.082597695 -0.05794515 -0.18081822
0003d0 37 73 ae bd f4 ee e9 3d 40 57 00 bd 22 f7 dd 3d
       -0.08518069 0.1142253 -0.031333208 0.108381525
0003e0 41 02 be 3d ed 16 31 3e 8f bf 1c 3c 04 ce 15 3e
       0.09277774 0.17293902 0.0095671555 0.1462937
0003f0 18 cd 04 3e 2c d6 ea bc 51 b9 b7 3d 0a ea 99 bd
       0.12968862 -0.028666578 0.08970893 -0.075153425

model.7.bias f4 [10]
000000 9e 27 0d 3c 37 22 d9 bd 01 d9 33 bd 51 c7 8e 3d
       0.0086154025 -0.10602229 -0.043908123 0.0697161
000010 74 6d d1 bd ab 2b 2e bd 41 cc b8 bc 51 4b 1c 3d
       -0.10225955 -0.042522114 -0.022558333 0.038157765
000020 cb 18 d7 3d 54 cb c8 bc
       0.10502776 -0.024511017

exp_avg f4 [64, 784]
000000 39 1e 8c 39 39 1e 8c 39 39 1e 8c 39 39 1e 8c 39
       0.00026725398 0.00026725398 0.00026725398 0.00026725398
000010 39 1e 8c 39 39 1e 8c 39 39 1e 8c 39 39 1e 8c 39
       0.00026725398 0.00026725398 0.00026725398 0.00026725398
000020 39 1e 8c 39 39 1e 8c 39 39 1e 8c 39 39 1e 8c 39
       0.00026725398 0.00026725398 0.00026725398 0.00026725398
000030 23 0e 8c 39 b3 c2 8a 39 b3 c2 8a 39 be 0f 8c 39
       0.00026713414 0.00026466473 0.00026466473 0.0002671461
000040 39 1e 8c 39 39 1e 8c 39 39 1e 8c 39 39 1e 8c 39
       0.00026725398 0.00026725398 0.00026725398 0.00026725398
000050 39 1e 8c 39 39 1e 8c 39 39 1e 8c 39 39 1e 8c 39
       0.00026725398 0.00026725398 0.00026725398 0.00026725398
000060 39 1e 8c 39 39 1e 8c 39 39 1e 8c 39 39 1e 8c 39
       0.00026725398 0.00026725398 0.00026725398 0.00026725398
000070 39 1e 8c 39 39 1e 8c 39 39 1e 8c 39 39 1e 8c 39
       0.00026725398 0.00026725398 0.00026725398 0.00026725398
000080 39 1e 8c 39 39 1e 8c 39 4a 1e 8c 39 93 40 8c 39
       0.00026725398 0.00026725398 0.00026725448 0.00026750992
000090 85 98 8e 39 5f 62 9a 39 27 24 9b 39 bf 25 8c 39
       0.00027197986 0.0002944646 0.0002959084 0.00026731004
0000a0 68 af 8d 39 5e 58 94 39 11 1e 95 39 25 c4 8b 39
       0.00027024304 0.00028294598 0.00028441896 0.00026658285
0000b0 10 79 8f 39 52 98 91 39 77 bd 8d 39 d3 2b 8c 39
       0.00027365284 0.00027770043 0.00027034778 0.00026735532
0000c0 ef b8 8f 39 03 3c bc 39 f6 62 c8 39 62 16 91 39
       0.00027412872 0.00035902867 0.00038220704 0.00027673232
0000d0 39 1e 8c 39 39 1e 8c 39 39 1e 8c 39 39 1e 8c 39
       0.00026725398 0.00026725398 0.00026725398 0.00026725398
0000e0 39 1e 8c 39 39 1e 8c 39 39 1e 8c 39 3c 1e 8c 39
       0.00026725398 0.00026725398 0.00026725398 0.00026725407
0000f0 cd 1f 8c 39 57 1e 8c 39 c8 1e 8c 39 a7 56 8c 39
       0.00026726574 0.00026725486 0.00026725815 0.00026767442
000100 7b 5d 8f 39 73 69 a7 39 1f 2b a5 39 cd 4d 88 39
       0.00027344734 0.00031931288 0.0003150338 0.00025997908
000110 85 50 85 39 5e 7a 88 39 bd 03 86 39 22 30 73 39
       0.00025427729 0.00026031112 0.00025561257 0.00023192217
000120 ea 54 8f 39 1b b8 a2 39 0f 25 91 39 60 30 ac 39
       0.0002733835 0.00031036217 0.00027684166 0.0003284244
000130 d5 49 b8 39 a2 2b b8 39 15 40 f2 39 dc 93 af 39
       0.00035150224 0.00035127724 0.00046205582 0.00033488765
000140 7b 2a 8c 39 55 1e 8c 39 39 1e 8c 39 39 1e 8c 39
       0.0002673453 0.0002672548 0.00026725398 0.00026725398
000150 39 1e 8c 39 39 1e 8c 39 39 1e 8c 39 40 1e 8c 39
       0.00026725398 0.00026725398 0.00026725398 0.0002672542
000160 3c 1e 8c 39 18 21 8c 39 f0 33 8c 39 c7 f6 8c 39
       0.00026725407 0.00026727538 0.00026741577 0.00026886744
000170 d8 8e 79 39 d8 a3 82 39 b9 45 be 39 8e b5 a6 39
       0.00023799704 0.00024917605 0.0003629157 0.00031797256
000180 f4 21 97 39 5c 37 8c 39 3f 84 52 39 1d f8 32 3a
       0.0002882626 0.00026744127 0.00020076426 0.0006827133
000190 82 de 1d 3a 22 18 9d 39 cf 84 f0 39 f0 95 8a 39
       0.0006022231 0.00029963354 0.00045875317 0.00026433123
0001a0 21 f9 a9 39 12 35 0d 3a c9 c3 19 3a 0a dc d9 39
       0.00032419807 0.0005386631 0.0005865661 0.00041553407
0001b0 96 0a 8c 39 67 21 8c 39 39 1e 8c 39 39 1e 8c 39
       0.00026710768 0.00026727768 0.00026725398 0.00026725398
0001c0 39 1e 8c 39 39 1e 8c 39 39 1e 8c 39 e5 1c 8c 39
       0.00026725398 0.00026725398 0.00026725398 0.0002672441
0001d0 80 48 8c 39 ce 41 87 39 f9 f8 7b 39 8c f8 66 39
       0.00026756898 0.00025798235 0.00024029975 0.000220271
0001e0 a7 ab 37 38 09 c2 29 39 ee 32 b3 39 8e 8c 9e 39
       4.3790464e-05 0.0001618938 0.00034179486 0.0003024083
0001f0 4d 2a 9e 39 ef bc b2 39 d7 9f 4d 3a b3 d6 86 3a
       0.00030167625 0.00034091572 0.00078439474 0.0010287374
000200 ae 59 82 3a 93 de 2b 3a a3 25 e4 39 2a bf 9a 39
       0.000994494 0.00065562985 0.0004351559 0.00029515597
000210 be 7a 28 3a af d4 50 3a 3d df 44 3a d9 52 0b 3a
       0.00064269814 0.00079662626 0.0007510072 0.00053147745
000220 f4 a0 8a 39 cc 89 8b 39 20 2c 8c 39 e5 24 8c 39
       0.0002644133 0.00026614813 0.00026735757 0.0002673037
000230 39 1e 8c 39 39 1e 8c 39 39 1e 8c 39 6f d6 8b 39
       0.00026725398 0.00026725398 0.00026725398 0.00026671911
000240 5a 54 92 39 c7 6e 94 39 73 51 8e 39 31 d8 68 38
       0.00027910137 0.00028311295 0.00027145035 5.5514454e-05
000250 33 76 de b8 f5 92 80 38 c0 ac aa 38 5a 49 64 39
       -0.00010607801 6.1308885e-05 8.138409e-05 0.000217711
000260 71 55 14 3a 14 0a 71 3a c9 70 7d 3a b9 c3 17 3a
       0.0005658484 0.0009194922 0.00096679904 0.0005789358
000270 47 a8 fb b9 d5 9a c1 b9 5b 38 e4 39 37 f0 02 3a
       -0.00047999827 -0.00036927187 0.00043529537 0.0004994901
000280 40 eb 25 3a 30 55 3a 3a 53 6d 16 3a 8e 74 97 39
       0.00063293055 0.0007108031 0.00057383365 0.00028887804
000290 8c 80 84 39 94 04 c6 39 9a 00 ba 39 39 1e 8c 39
       0.00025272777 0.00037768914 0.00035477133 0.00026725398
0002a0 39 1e 8c 39 39 1e 8c 39 39 1e 8c 39 92 de 8b 39
       0.00026725398 0.00026725398 0.00026725398 0.00026677974
0002b0 b3 e3 8c 39 aa 45 93 39 d1 60 fb 38 a3 ce 35 b8
       0.0002687253 0.0002808993 0.00011986646 -4.334621e-05
0002c0 45 bd 77 b8 c2 a4 5a 39 7f 7e 12 3a 9a 13 f6 39
       -5.906566e-05 0.00020851477 0.00055883074 0.0004693538
0002d0 20 ca a6 39 aa dd 0d 38 b9 c4 da 39 fd 68 9a b9
       0.00031812582 3.382346e-05 0.0004172677 -0.0002945139
0002e0 7e 2c ea ba d8 dc a7 ba 4c b0 e5 b9 77 7e a7 b9
       -0.0017866043 -0.0012806905 -0.00043809635 -0.00031946946
0002f0 bc 50 80 b9 34 71 4a 38 b5 99 d4 b6 a4 a2 48 39
       -0.00024474214 4.826598e-05 -6.335986e-06 0.00019134075
000300 a1 7a ce 39 ba 94 e8 39 43 ea 8b 39 d5 3e 9d 39
       0.00039382747 0.00044361298 0.00026686685 0.00029992187
000310 39 1e 8c 39 39 1e 8c 39 39 1e 8c 39 93 13 87 39
       0.00026725398 0.00026725398 0.00026725398 0.0002576379
000320 f9 85 64 39 23 38 42 39 dc 8e 0b b9 a0 05 24 b9
       0.00021793683 0.00018522194 -0.00013309292 -0.00015642354
000330 cb c0 2e ba 22 5d 1b ba 20 59 d6 b9 52 d9 2a b9
       -0.00066663016 -0.00059266586 -0.00040883664 -0.00016293422
000340 ec ce 00 38 84 f4 0f ba 0f 94 02 b9 8b 5d df b9
       3.071029e-05 -0.0005491453 -0.00012452922 -0.0004260357
000350 a9 6f e3 ba ab 59 75 ba 3e f4 93 b9 35 51 87 ba
       -0.0017352003 -0.000935937 -0.0002822 -0.0010323884
000360 f4 9e 4e ba 1f f4 31 ba 2a 3d c1 b8 28 86 fa 39
       -0.0007881962 -0.0006788391 -9.21435e-05 0.0004778367
000370 25 f9 c1 39 15 f7 98 39 59 49 97 39 93 36 97 39
       0.00036997456 0.0002917579 0.00028855613 0.00028841625
000380 39 1e 8c 39 39 1e 8c 39 39 1e 8c 39 c0 7a 80 39
       0.00026725398 0.00026725398 0.00026725398 0.00024505518
000390 18 7b 53 39 9f 2e 30 39 94 46 82 b9 bc ef f1 b9
       0.00020168384 0.00016802036 -0.00024848117 -0.00046145718
0003a0 a3 e0 3e ba 60 31 19 ba c2 01 5d ba 52 9d 57 ba
       -0.0007281398 -0.0005843844 -0.0008430743 -0.00082250417
0003b0 1a 28 f4 b9 00 7f 21 ba 51 87 82 39 d2 6f 17 39
       -0.00046569185 -0.0006160587 0.0002489635 0.00014442138
0003c0 f1 bf d1 b9 bc 79 3b b9 87 89 99 b8 46 77 4d ba
       -0.00040006594 -0.0001787906 -7.321225e-05 -0.00078379025
0003d0 09 dc 3f ba 65 69 76 b9 47 33 89 39 6d ad 9c 39
       -0.00073188596 -0.0002349965 0.0002616888 0.0002988385
0003e0 d5 b3 2c 39 13 10 65 39 31 89 9d 39 3b 1e 8c 39
       0.00016470191 0.0002184513 0.0003004759 0.00026725404
0003f0 39 1e 8c 39 39 1e 8c 39 42 1e 8c 39 06 51 80 39
       0.00026725398 0.00026725398 0.00026725425 0.0002447443

exp_avg_sq f4 [64, 784]
000000 19 a4 99 35 19 a4 99 35 19 a4 99 35 19 a4 99 35
       1.1447147e-06 1.1447147e-06 1.1447147e-06 1.1447147e-06
000010 19 a4 99 35 19 a4 99 35 19 a4 99 35 19 a4 99 35
       1.1447147e-06 1.1447147e-06 1.1447147e-06 1.1447147e-06
000020 19 a4 99 35 19 a4 99 35 19 a4 99 35 19 a4 99 35
       1.1447147e-06 1.1447147e-06 1.1447147e-06 1.1447147e-06
000030 6c d3 99 35 5c 3c 9a 35 92 a6 99 35 2b a4 99 35
       1.146092e-06 1.1491461e-06 1.1447867e-06 1.1447167e-06
000040 19 a4 99 35 19 a4 99 35 19 a4 99 35 19 a4 99 35
       1.1447147e-06 1.1447147e-06 1.1447147e-06 1.1447147e-06
000050 19 a4 99 35 19 a4 99 35 19 a4 99 35 19 a4 99 35
       1.1447147e-06 1.1447147e-06 1.1447147e-06 1.1447147e-06
000060 19 a4 99 35 19 a4 99 35 19 a4 99 35 19 a4 99 35
       1.1447147e-06 1.1447147e-06 1.1447147e-06 1.1447147e-06
000070 19 a4 99 35 19 a4 99 35 19 a4 99 35 19 a4 99 35
       1.1447147e-06 1.1447147e-06 1.1447147e-06 1.1447147e-06
000080 19 a4 99 35 83 a0 99 35 99 77 9b 35 2c aa 9d 35
       1.1447147e-06 1.1446103e-06 1.1583207e-06 1.1746938e-06
000090 a0 85 9f 35 75 94 99 35 0e ba 98 35 c8 ce 97 35
       1.1885313e-06 1.1442595e-06 1.1379032e-06 1.1310558e-06
0000a0 4c 94 97 35 ba 60 99 35 23 ef 9d 35 c0 19 98 35
       1.1293537e-06 1.142754e-06 1.176701e-06 1.1332377e-06
0000b0 33 95 99 35 7f 42 98 35 3f 87 99 35 e0 8b 9a 35
       1.1442811e-06 1.1344235e-06 1.143875e-06 1.1514603e-06
0000c0 b2 ec 97 35 67 e5 99 35 9c ca 9d 35 cd d8 9c 35
       1.1319264e-06 1.1466153e-06 1.1756379e-06 1.1686003e-06
0000d0 19 a4 99 35 19 a4 99 35 19 a4 99 35 19 a4 99 35
       1.1447147e-06 1.1447147e-06 1.1447147e-06 1.1447147e-06
0000e0 19 a4 99 35 19 a4 99 35 19 a4 99 35 14 86 99 35
       1.1447147e-06 1.1447147e-06 1.1447147e-06 1.143841e-06
0000f0 6f 96 99 35 23 97 99 35 5e 6f 9a 35 bb f1 a2 35
       1.144317e-06 1.1443375e-06 1.1506306e-06 1.2140293e-06
000100 e1 0e a3 35 9c 95 9b 35 94 5c 9e 35 6c ef 9a 35
       1.2148777e-06 1.1591942e-06 1.1798861e-06 1.1543575e-06
000110 8c eb 98 35 16 78 a3 35 25 2c b3 35 fe 8c b4 35
       1.1393436e-06 1.2179396e-06 1.3349387e-06 1.3452079e-06
000120 90 4f b7 35 f8 32 af 35 4e e5 ac 35 4c f5 9d 35
       1.3657718e-06 1.305335e-06 1.2881735e-06 1.1768802e-06
000130 64 32 9a 35 66 cc 9a 35 44 13 a0 35 b6 a5 9c 35
       1.148856e-06 1.1533382e-06 1.1926536e-06 1.1671134e-06
000140 92 eb 99 35 d6 aa 99 35 19 a4 99 35 19 a4 99 35
       1.1467948e-06 1.1449108e-06 1.1447147e-06 1.1447147e-06
000150 19 a4 99 35 19 a4 99 35 00 a4 99 35 bf 6b 99 35
       1.1447147e-06 1.1447147e-06 1.1447119e-06 1.1430747e-06
000160 3f 28 99 35 3f 12 99 35 a5 ca 9b 35 e2 28 a5 35
       1.1411101e-06 1.1404699e-06 1.1607377e-06 1.2305356e-06
000170 02 20 a1 35 31 10 9f 35 43 7f a4 35 b9 84 a8 35
       1.200475e-06 1.1851135e-06 1.225599e-06 1.2555603e-06
000180 1a f8 aa 35 3a 04 db 35 a5 ad e9 35 33 27 09 36
       1.2738194e-06 1.6318002e-06 1.741039e-06 2.0437408e-06
000190 9f 8c 0b 36 46 af 00 36 c9 b4 f1 35 cf bc e3 35
       2.0794466e-06 1.917551e-06 1.8008515e-06 1.6967768e-06
0001a0 69 cd c2 35 0b fa b1 35 6a e8 a4 35 8d 8e a1 35
       1.4513909e-06 1.32603e-06 1.2286594e-06 1.2036922e-06
0001b0 cd 78 9d 35 4d 8f 99 35 2a a4 99 35 19 a4 99 35
       1.1732569e-06 1.1441094e-06 1.1447166e-06 1.1447147e-06
0001c0 19 a4 99 35 c2 a4 99 35 52 a2 99 35 39 8d 99 35
       1.1447147e-06 1.1447339e-06 1.144663e-06 1.144049e-06
0001d0 2a 2e 99 35 9d 82 99 35 93 6a a0 35 2d f4 ac 35
       1.1412824e-06 1.1437402e-06 1.1951946e-06 1.2886063e-06
0001e0 67 14 b6 35 f6 b0 c1 35 56 5a d6 35 28 e0 e3 35
       1.3565995e-06 1.4431123e-06 1.5970534e-06 1.6978056e-06
0001f0 c3 77 02 36 f4 44 23 36 f3 bb 56 36 a8 06 69 36
       1.944122e-06 2.4329029e-06 3.1997886e-06 3.472358e-06
000200 02 c5 5f 36 fd 97 45 36 63 7b 49 36 ae f7 1e 36
       3.3344263e-06 2.9443756e-06 3.0023155e-06 2.3688003e-06
000210 f0 60 0f 36 70 62 e4 35 6e 6c d9 35 ec aa bc 35
       2.1365086e-06 1.7015973e-06 1.6199317e-06 1.4056836e-06
000220 73 9a a8 35 57 6f a7 35 ee 5e 9e 35 db 7b 9a 35
       1.2561926e-06 1.2474874e-06 1.1799546e-06 1.1509941e-06
000230 19 a4 99 35 19 a4 99 35 a5 9e 99 35 b9 cd 99 35
       1.1447147e-06 1.1447147e-06 1.144556e-06 1.1459261e-06
000240 8e 4a 9c 35 b6 09 a7 35 5c 70 b4 35 db f9 c8 35
       1.1644604e-06 1.2445296e-06 1.3443746e-06 1.4973879e-06
000250 0d ec d8 35 0b 53 05 36 57 5c 23 36 9f 36 5b 36
       1.6161954e-06 1.9866882e-06 2.4342642e-06 3.2665337e-06
000260 b4 b6 96 36 71 1e c8 36 a3 15 df 36 63 89 d9 36
       4.491618e-06 5.9640083e-06 6.6484367e-06 6.483098e-06
000270 85 78 e6 36 b2 4c c8 36 df 2f ae 36 04 85 96 36
       6.8685645e-06 5.969393e-06 5.191177e-06 4.4858334e-06
000280 67 7f 6c 36 6b dd 2e 36 9e 53 0a 36 59 55 f4 35
       3.5240898e-06 2.6056903e-06 2.0612274e-06 1.8204256e-06
000290 5a ce df 35 3b 25 a9 35 9a a0 9c 35 82 4a 9a 35
       1.6674851e-06 1.2602317e-06 1.1669647e-06 1.1495579e-06
0002a0 19 a4 99 35 18 a4 99 35 1c 99 99 35 33 7e 9d 35
       1.1447147e-06 1.1447146e-06 1.1443949e-06 1.173414e-06
0002b0 72 d6 a6 35 85 a4 b3 35 2f 40 e0 35 39 24 03 36
       1.2430376e-06 1.3384421e-06 1.670798e-06 1.9541606e-06
0002c0 b5 56 2d 36 f1 e7 60 36 49 a9 b9 36 78 50 02 37
       2.582948e-06 3.3513609e-06 5.533137e-06 7.767339e-06
0002d0 cb ad 2f 37 aa c8 4a 37 6a ae 53 37 76 55 59 37
       1.0471277e-05 1.2086859e-05 1.2617189e-05 1.2954106e-05
0002e0 44 bc 57 37 e0 e7 43 37 1b df 18 37 5c 65 eb 36
       1.2858833e-05 1.1676893e-05 9.111852e-06 7.0153455e-06
0002f0 89 c2 c5 36 a8 de a4 36 c9 89 81 36 32 8b 31 36
       5.8937044e-06 4.9135015e-06 3.86054e-06 2.6456078e-06
000300 95 31 e5 35 06 1d b0 35 bf c7 9e 35 fe e9 99 35
       1.707626e-06 1.3121469e-06 1.1830051e-06 1.1467489e-06
000310 11 a4 99 35 95 a4 99 35 c5 9c 99 35 50 72 9d 35
       1.1447138e-06 1.1447288e-06 1.1445014e-06 1.1730681e-06
000320 d0 9f ad 35 3b 2c cc 35 2e 6d 0e 36 0c 1b 38 36
       1.2936016e-06 1.5212057e-06 2.12232e-06 2.743388e-06
000330 1e ef 89 36 38 03 cf 36 f5 24 17 37 d2 fa 4f 37
       4.110755e-06 6.1694554e-06 9.008906e-06 1.239656e-05
000340 f2 96 76 37 c2 44 82 37 d2 9a 84 37 0d ab 83 37
       1.4697887e-05 1.5529225e-05 1.580772e-05 1.5696069e-05
000350 99 95 87 37 43 d8 70 37 6f ab 45 37 52 e4 22 37
       1.6162916e-05 1.4355467e-05 1.178203e-05 9.709112e-06
000360 f2 fa 07 37 e2 90 01 37 e6 8f bf 36 ab 0d 83 36
       8.105055e-06 7.722732e-06 5.7089956e-06 3.9056954e-06
000370 b4 51 1c 36 90 50 da 35 4e 64 ab 35 85 cc 99 35
       2.329337e-06 1.6265712e-06 1.2769685e-06 1.1458911e-06
000380 51 a5 99 35 22 23 99 35 36 dd 99 35 4f d4 9c 35
       1.1447502e-06 1.1409613e-06 1.1463769e-06 1.1684696e-06
000390 91 be bd 35 17 2c df 35 1b a2 22 36 88 d2 74 36
       1.413706e-06 1.6627627e-06 2.423424e-06 3.6481379e-06
0003a0 08 2b bf 36 e9 a0 17 37 ab aa 47 37 2d 9c 76 37
       5.697253e-06 9.037766e-06 1.1901061e-05 1.4699105e-05
0003b0 b3 28 92 37 49 34 9c 37 e4 02 85 37 df a4 7e 37
       1.7423508e-05 1.8620996e-05 1.5856182e-05 1.5177967e-05
0003c0 6a 4f 86 37 73 0c 84 37 34 81 7b 37 86 c2 52 37
       1.6011025e-05 1.5741423e-05 1.4990848e-05 1.2562266e-05
0003d0 9a 50 42 37 c4 f9 1c 37 d5 82 df 36 9e fb 93 36
       1.1582068e-05 9.356478e-06 6.6611487e-06 4.4102335e-06
0003e0 5b f3 36 36 fa 33 db 35 e6 be a4 35 56 cc 9b 35
       2.7261765e-06 1.6331899e-06 1.2274511e-06 1.160787e-06
0003f0 c5 a0 99 35 9f 30 99 35 e9 8a 99 35 0a 4e 9f 35
       1.1446178e-06 1.1413539e-06 1.1439816e-06 1.1869136e-06

exp_avg f4 [64]
000000 8e 26 25 ba c5 42 41 b9 5a 49 ba b9 87 dd 83 39
       -0.00062999956 -0.00018430788 -0.00035531336 0.00025151318
000010 85 ee 18 b9 2c 7a ca 39 2e 69 21 39 86 6f ca 37
       -0.00014584705 0.00038619468 0.00015393339 2.4132209e-05
000020 0f e3 bb b9 e5 e2 4b 36 6d b6 85 b9 b4 a3 9a ba
       -0.0003583659 3.0381427e-06 -0.00025503655 -0.0011798055
000030 bf 13 1f b9 ba 3e 41 ba 10 64 be b9 f8 b4 3e ba
       -0.00015170778 -0.00073717127 -0.00036314176 -0.0007274891
000040 0f b1 11 b9 88 ca 95 38 b6 df 69 3a 4b 0a 94 b9
       -0.00013894237 7.142598e-05 0.000892158 -0.0002823643
000050 7d 93 0b ba 33 38 3c 38 c0 19 b1 39 16 c9 4e 39
       -0.00053244067 4.4875032e-05 0.00033779256 0.00019720601
000060 62 81 f8 39 53 c0 1c 38 5a 3b cc b9 a6 2a 35 b9
       0.00047398644 3.7372414e-05 -0.00038954132 -0.00017277393
000070 40 1e 65 39 32 cb 70 b9 f7 c5 e9 b9 d1 bb ae b9
       0.00021850411 -0.0002296388 -0.00044588718 -0.000333278
000080 0d c5 1e ba 4f 81 da b8 9a 30 64 b9 b3 cc f1 b8
       -0.00060565845 -0.00010419136 -0.0002176188 -0.00011529904
000090 b0 37 ed 39 7b a4 82 37 ec e9 4d 3a 9f 9d 42 39
       0.00045245653 1.55738e-05 0.00078549865 0.0001856
0000a0 ec f5 d5 38 fe a7 d6 38 d5 ad 1f 38 ef ce d7 39
       0.00010202438 0.00010235606 3.8070448e-05 0.00041162173
0000b0 a5 5e 61 3a 69 d0 a9 b9 4a 18 aa 39 01 df d8 b7
       0.0008597172 -0.0003238947 0.00032443024 -2.585305e-05
0000c0 00 c5 b2 39 ae 7f 08 3a 5f 3c d7 39 d5 f4 d4 b9
       0.00034097582 0.0005207014 0.00041052976 -0.00040618205
0000d0 65 ea 01 3a 38 52 6a ba bc 9f 3b 38 57 73 d5 38
       0.0004955887 -0.0008938643 4.473304e-05 0.00010178115
0000e0 66 87 8d 39 fd 86 fb 37 a3 ef ae b8 41 df 92 39
       0.00026994495 2.998439e-05 -8.3416024e-05 0.00028013627
0000f0 25 a6 48 ba 38 cf 2c ba 7f 50 25 b8 4b 78 1c 38
       -0.0007654152 -0.00065921573 -3.9414033e-05 3.730533e-05

exp_avg_sq f4 [64]
000000 15 71 d5 36 68 3c c6 35 5f 44 a1 36 2a d2 9c 36
       6.361059e-06 1.476973e-06 4.8061333e-06 4.6736286e-06
000010 39 ff a0 36 bc b5 69 36 a2 dd 9f 36 e6 4d 20 36
       4.7980834e-06 3.482549e-06 4.7643707e-06 2.38872e-06
000020 e1 be 7c 36 ab 1a 9c 36 31 0d 75 36 56 bc 8d 36
       3.7662032e-06 4.652267e-06 3.6515523e-06 4.2240526e-06
000030 11 f5 38 36 b4 69 67 36 ce 6e aa 36 f4 69 a5 36
       2.7560784e-06 3.448321e-06 5.079294e-06 4.9297178e-06
000040 59 d9 6c 36 27 33 33 36 22 73 ef 36 ba 5c 83 36
       3.5293253e-06 2.6702853e-06 7.1361583e-06 3.914899e-06
000050 08 10 8b 36 9b 55 85 36 39 fc 7a 36 a3 07 64 36
       4.144389e-06 3.9736747e-06 3.7399716e-06 3.3979093e-06
000060 e7 89 9a 36 c2 8e 8c 36 b8 b1 26 36 e4 3b 4f 36
       4.6056116e-06 4.1889443e-06 2.4839374e-06 3.0880265e-06
000070 23 2c 90 36 0e 2c 4d 36 d9 a2 84 36 5f 3d 60 36
       4.2966726e-06 3.0573024e-06 3.9528645e-06 3.3414324e-06
000080 fe 6d 2e 36 5d 29 52 36 51 5c 5c 36 ba 50 31 36
       2.5992044e-06 3.1316515e-06 3.283629e-06 2.6422044e-06
000090 69 10 57 36 9b b0 89 36 6c f7 bd 36 62 6c 8d 36
       3.2047049e-06 4.1034777e-06 5.6614426e-06 4.214745e-06
0000a0 f3 b0 15 36 77 a1 63 36 2c b3 2c 36 76 7b 84 36
       2.2305728e-06 3.391962e-06 2.573429e-06 3.9482793e-06
0000b0 8a 74 6c 36 9b 51 76 36 79 83 bb 35 ba 09 8e 36
       3.5234575e-06 3.6704357e-06 1.3970849e-06 4.233062e-06
0000c0 5e 6e e4 36 a2 8b 95 36 4c 96 6b 36 77 b2 80 36
       6.807778e-06 4.4568014e-06 3.5105213e-06 3.8354733e-06
0000d0 c9 8d 5d 36 65 a9 a9 36 51 66 5d 36 d7 98 7d 36
       3.3014096e-06 5.0563126e-06 3.2991122e-06 3.7788902e-06
0000e0 62 f4 50 36 0c e8 a5 36 d0 6a 43 36 b0 74 94 36
       3.1136665e-06 4.944397e-06 2.9119437e-06 4.424328e-06
0000f0 f5 3d 98 36 08 fb 82 36 7a 75 4b 36 f5 04 8e 36
       4.5371658e-06 3.903526e-06 3.0317738e-06 4.232507e-06
