logs/lightning_logs/version_3/checkpoints/epoch=9-step=2150.ckpt (torch, 668716 bytes, 18 tensors)

model.1.weight f4 [64, 784]
0	0x3ce55a43	0.027997142
1	0xbbca2294	-0.006168673
2	0x3b2f0fe5	0.0026712355
3	0x3cd7ecdb	0.026358059
4	0xbcc4d606	-0.024027836
5	0x3cfe0fb7	0.031013353
6	0x3b134b3c	0.0022475263
7	0x3ce371fa	0.02776431
8	0x3c6e8c05	0.01455975
9	0x3bab1c27	0.005221862
10	0x3c9fbfc8	0.019500628
11	0x3c3a117d	0.011356709
12	0x3cb43bc3	0.022001153
13	0xbbba5d42	-0.0056873867
14	0x3be692eb	0.007036557
15	0x3bd11c19	0.0063815233
16	0x3c7203de	0.01477143
17	0x3c1add68	0.009452201
18	0x3d272dc4	0.04081513
19	0x3ca9a58a	0.020708818
20	0xbb72d5d4	-0.003705372
21	0xbc443390	-0.011975184
22	0x3b6c7df3	0.0036085814
23	0xbbbe634e	-0.005810178
24	0xbaf272c5	-0.0018497339
25	0x3c393842	0.011304917
26	0x3cfd02de	0.030885156
27	0x3ced9fe6	0.02900691
28	0xbccf66dc	-0.025317602
29	0x3d01fc73	0.031734895
30	0x3ca055cd	0.019572163
31	0x3d320f93	0.043471884
32	0x3d07d944	0.033166185
33	0xbcbc9137	-0.023018463
34	0xbcf1a94e	-0.029499676
35	0xbc9504a1	-0.018190684
36	0x3cf1184a	0.029430527
37	0xbb062a52	-0.0020472002
38	0x3c780d60	0.015139908
39	0xbca76125	-0.020432064
40	0x3ced99ea	0.029004056
41	0xbca13ae6	-0.019681405
42	0x3d0968c5	0.03354718
43	0x3bd8512d	0.006601474
44	0xbc61bb6c	-0.013777595
45	0x3cbf1905	0.02332736
46	0xbc76a84e	-0.015054775
47	0x3c3ec780	0.011644244
48	0xbbdbdb29	-0.0067094755
49	0x394afd38	0.00019358553
50	0xbcff879e	-0.031192597
51	0xbc20735a	-0.009793127
52	0x3ced5c4a	0.02897467
53	0x3a6f79e3	0.0009135289
54	0x3d39022c	0.045168087
55	0x3d1c8fc2	0.038223036
56	0x3c01cdcb	0.0079226
57	0xbc695ec7	-0.014243788
58	0x3d006212	0.031343527
59	0x3ca6656d	0.020312035
60	0xbc6215c4	-0.013799135
61	0x3d051016	0.032486044
62	0x3ccc3555	0.024927774
63	0x3ca33144	0.019920953
64	0xbd185a13	-0.037195276
65	0xbcbdc6d8	-0.023166105
66	0xbd13d1c7	-0.03608873
67	0xbd0f0fa9	-0.034927044
68	0xbd9887cb	-0.074477755
69	0xbd783856	-0.0606006
70	0x3bc38b10	0.0059675053
71	0xbc070b55	-0.008242448
72	0x3ca8e6c1	0.020617845
73	0x3c390803	0.011293414
74	0x3c4e30cf	0.012584879
75	0xb984888c	-0.00025278737
76	0x3b3c1d93	0.002870415
77	0x3b997ccf	0.004684068
78	0xbd30dc0d	-0.043178607
79	0x3c8c8bf8	0.017156586
80	0xbc965fbf	-0.018356202
81	0xbc923205	-0.017846117
82	0x3c40c98c	0.0117668025
83	0x3b65f54c	0.0035088835
84	0x3cfa6f7d	0.03057074
85	0xbc35acd0	-0.011088565
86	0xbcb575e5	-0.022150943
87	0x3d0d3f26	0.03448405
88	0x3b4de22a	0.0031415322
89	0x3cde2091	0.027115138
90	0x3c272702	0.010202171
91	0xbd33159c	-0.04372178
92	0xbce3be83	-0.027800804
93	0xbd27b14a	-0.04094056
94	0xbdaa7188	-0.083224356
95	0xbdb0be69	-0.08630068
96	0xbd66cd2b	-0.056348007
97	0xbd357be8	-0.04430762
98	0xbd0243ba	-0.03180287
99	0xbc900281	-0.017579319
100	0x3d4b2099	0.049591634
101	0x3ccb61d2	0.024826918
102	0x3d40ed3c	0.047101244
103	0x3cd75d0b	0.026289484
104	0xbceb870f	-0.028750924
105	0xbd4e9639	-0.050436232
106	0x3c2fcaf5	0.010729541
107	0xbc714fdb	-0.014728512
108	0x3cb74ec5	0.022376427
109	0x3c85b082	0.016319517
110	0x3cad0e1f	0.021124898
111	0x3d1491ed	0.03627198
112	0x3d3202cf	0.04345971
113	0xbc672d5a	-0.014109934
114	0x3c651974	0.013983119
115	0x3d126ca7	0.03574815
116	0x3d0c6968	0.03428021
117	0x3ce82484	0.028337725
118	0xbcef8798	-0.02923946
119	0xbd2a5dbf	-0.04159331
120	0xbd5a8a59	-0.053354595
121	0xbd119a81	-0.035547737
122	0xbcbf979f	-0.023387728
123	0xbd98d5fd	-0.0746269
124	0xbcd7acdc	-0.026327543
125	0xbd2fe056	-0.042938553
126	0xbd486d00	-0.048932076
127	0xbcb3de51	-0.021956595
128	0x3d09368b	0.03349928
129	0x3d8401ad	0.06445632
130	0x3c8223a4	0.015886135
131	0x3d272144	0.04080321
132	0x3d204405	0.03912737
133	0x3cc4ee4c	0.02403941
134	0x3c345fe2	0.011009188
135	0x3cf455d3	0.02982608
136	0x3d1a7314	0.037707403
137	0x3c33cc43	0.010973993
138	0xbcad7c57	-0.021177454
139	0xbcb6e1a5	-0.022324393
140	0xbbddd869	-0.006770183
141	0x3bb22130	0.005436085
142	0xbc4c6c47	-0.012476987
143	0x3cbbef33	0.022941208
144	0x3cbfc45d	0.023409063
145	0x3c664c75	0.014056315
146	0x3cd934f7	0.026514513
147	0x3c5ad573	0.013356554
148	0x3c24eea9	0.010066667
149	0x3c951574	0.018198706
150	0xbce35dc2	-0.027754668
151	0xb9c6047c	-0.00037768844
152	0xbd31a15b	-0.04336677
153	0xbd363993	-0.0444885
154	0xbd4ea248	-0.050447732
155	0xbcb33d64	-0.02187986
156	0x3c0f536c	0.008747917
157	0x3cd40557	0.025881452
158	0x3d74f5a8	0.05980459
159	0x3c088aea	0.008333901
160	0xbc9053fa	-0.017618168
161	0x3d03ceb9	0.032179568
162	0x3d4abc8a	0.04949621
163	0x3d917926	0.07103185
164	0x3c3128f6	0.0108129885
165	0x3c517871	0.012785063
166	0xbc0c1c05	-0.008551602
167	0x3a3d2a55	0.0007216086
168	0xbc9a8de2	-0.018866483
169	0xbbdaff8f	-0.006683297
170	0xbae12103	-0.0017175976
171	0x3cba3ce8	0.02273412
172	0x3ceb4f85	0.028724441
173	0x3d2fb807	0.04290011
174	0x3d7d3956	0.061822258
175	0x3d59df13	0.053191256
176	0x3ce6f8a2	0.02819473
177	0x3bc1f9ab	0.0059196553
178	0xbd35ec0d	-0.04441457
179	0xbca6152e	-0.020273771
180	0xbd89fdd7	-0.06737869
181	0xbd9cf2a1	-0.07663465
182	0xbdfd1da9	-0.12359173
183	0xbdce49b7	-0.10072654
184	0xbdd1eb32	-0.10249938
185	0xbcd8e3c3	-0.026475793
186	0xbd81e6b3	-0.063428305
187	0xbd1ac764	-0.03778781
188	0xbb9b1837	-0.0047331112
189	0xbb8c34c2	-0.00427875
190	0x3d849605	0.064739265
191	0x3d53883e	0.051643603
192	0x3cdcdd1f	0.026960908
193	0x3cb60aad	0.022221887
194	0x3d3279b3	0.043573093
195	0xbc7effe6	-0.015563941
196	0x3cd7f1e1	0.026360454
197	0x3d04f1c9	0.032457147
198	0x3d34dc61	0.044155482
199	0xbc811774	-0.015758254
200	0x3cf712c7	0.03016032
201	0x3b8b1d7c	0.004245458
202	0x3d3ca989	0.04606012
203	0xbb38cc2c	-0.0028197868
204	0x3c3aae3b	0.011394079
205	0xbc5294eb	-0.012852888
206	0xbcebfcc0	-0.028807044
207	0xbd370b44	-0.044688478
208	0xbd8bb98b	-0.06822499
209	0xbd8794dc	-0.066201895
210	0xbdce4563	-0.10071828
211	0xbdcaced2	-0.09902729
212	0xbe02cad5	-0.12772687
213	0xbd3edb25	-0.04659571
214	0xbcc1fba6	-0.023679566
215	0xba65bd51	-0.0008763867
216	0x3c1f425b	0.00972041
217	0xbc4bdb75	-0.012442459
218	0x3ce90bb0	0.028447956
219	0x3db454b0	0.08805215
220	0x3ca0eb95	0.019643584
221	0x3d944b9f	0.07240986
222	0xbb56bdc3	-0.0032766915
223	0xbc814663	-0.015780633
224	0x3cdcde20	0.026961386
225	0xbc85da24	-0.01633937
226	0x3ae68f1a	0.0017590255
227	0x3d0120ea	0.03152553
228	0x3d0e33a4	0.034717217
229	0x3d33df9c	0.043914422
230	0xbcc33425	-0.023828575
231	0xbd2e5fe5	-0.04257192
232	0xbad513ae	-0.0016256475
233	0xbca76cdc	-0.02043765
234	0xbd0b7212	-0.034044333
235	0xbce571d4	-0.028008379
236	0xbd965152	-0.07339729
237	0xbd310289	-0.04321531
238	0xbdbe75b9	-0.092997976
239	0xbe1498c3	-0.14511399
240	0xbddfd261	-0.109287985
241	0xbd0382d0	-0.032107174
242	0x3c0edb14	0.0087192245
243	0x3b9a3eb0	0.00470718
244	0xba792e62	-0.0009505508
245	0x3c9d397c	0.01919245
246	0xbb4a3134	-0.0030852081
247	0x3cd2db51	0.025739344
248	0x3cabe001	0.020980837
249	0x3da6c8a1	0.08143736
250	0x3d2da1d9	0.042390678
251	0xbbaaed30	-0.0052162632
252	0x3c36c453	0.011155206
253	0x3cd02840	0.025409818
254	0x3c60e53d	0.01372653
255	0xbc9b5d0e	-0.01896527

model.1.bias f4 [64]
0	0xbccf260e	-0.0252867
1	0x3d219184	0.039445415
2	0xbbc71254	-0.006075183
3	0x3b7b7e0f	0.0038374697
4	0xbd004ca9	-0.03132311
5	0xbc13603d	-0.008995113
6	0xbc532e4a	-0.012889454
7	0x3cb80842	0.022464875
8	0x3d482357	0.048861828
9	0xbba747f8	-0.005105015
10	0x3d06ed0b	0.032940906
11	0x3d1bfceb	0.038083
12	0xbca2aa01	-0.019856455
13	0xbc6f3781	-0.0146006355
14	0xbd06cbd4	-0.03290923
15	0xbd0837d9	-0.033256385
16	0xbc0d4f54	-0.00862487
17	0x3c49a7c1	0.012308062
18	0xbcefea0f	-0.029286413
19	0xbb40851b	-0.0029376212
20	0x3a3553b6	0.0006917076
21	0x3c6d3bc6	0.014479583
22	0x3ce6c8f5	0.028171996
23	0xbd35294b	-0.044228833
24	0x3d00adda	0.031415798
25	0xbca9227d	-0.020646328
26	0x3ac5b0d4	0.0015082606
27	0xbc78a940	-0.015177071
28	0x3cf82fd0	0.030296236
29	0x3c61b32e	0.01377563
30	0x3d24bc08	0.040218383
31	0x3d1dba55	0.03850778
32	0x3bf2bc98	0.007407736
33	0xbbc3be25	-0.0059735947
34	0xb94b5e68	-0.00019394758
35	0xbb224bf9	-0.0024764522
36	0xbce16eaa	-0.027518589
37	0x3b394869	0.002827192
38	0xbc6219f3	-0.013800132
39	0xbc85cb36	-0.01633225
40	0xbcaa38e4	-0.02077908
41	0x3ccea62b	0.02522572
42	0xbc4d6cc3	-0.012538138
43	0xbcc9ff84	-0.024657972
44	0xbcfc222d	-0.030778015
45	0x3ca25014	0.019813575
46	0xbb5fd710	-0.0034155287
47	0x3abe1414	0.0014501833
48	0x3c2c7d28	0.010527886
49	0x3d2439c1	0.04009414
50	0xbc68abec	-0.014201146
51	0x3cfd987d	0.030956501
52	0xbca0258e	-0.019549157
53	0x3ce3181b	0.027721455
54	0x3ca60327	0.020265175
55	0xbadc5319	-0.0016809433
56	0xbbbd7c04	-0.005782606
57	0xbc6a1398	-0.014286898
58	0x3d0d405a	0.0344852
59	0xbcea7b3f	-0.028623221
60	0x3ca0f283	0.019646889
61	0xbcde4b0a	-0.02713539
62	0x3d0e01a8	0.03466955
63	0x3c30ad72	0.01078354

model.4.weight f4 [64, 64]
0	0xbe3ab095	-0.18231423
1	0x3dc4371c	0.09580824
2	0x3e0e437d	0.13892932
3	0xbe223d66	-0.15843734
4	0xbd8d8a95	-0.06911198
5	0x3dbfda1d	0.09367774
6	0x3df49797	0.11942976
7	0x3d846812	0.06465162
8	0x3df1a383	0.117987655
9	0x3d848aba	0.064717725
10	0x3dc9881c	0.09840414
11	0xbd12b66b	-0.0358185
12	0xbd33bc6e	-0.043880872
13	0xbd72fb4c	-0.059321687
14	0x3badbed7	0.005302291
15	0x3e6868cd	0.22696228
16	0x3d8ba66c	0.06818852
17	0x3d9b6b77	0.07588857
18	0xbddec133	-0.108766936
19	0x3bcf24b1	0.0063215126
20	0x3df7a3f0	0.120918155
21	0x3c4f2d32	0.012645053
22	0xbd9969f8	-0.07490915
23	0xbd828140	-0.06372309
24	0x3b4d64d2	0.0031340611
25	0xbcb216c3	-0.02173937
26	0x3d53afab	0.051681202
27	0x3b6a61e5	0.0035763916
28	0x3d076b9c	0.03306161
29	0xbe2b57e3	-0.16732745
30	0x3e1426dc	0.14467949
31	0xbd436c9f	-0.04771101
32	0x3de92c18	0.11385363
33	0xbd526cf3	-0.051373433
34	0xbdcaee5f	-0.09908747
35	0x3dcb6570	0.09931457
36	0x3d8fc3f1	0.07019795
37	0x3e2d2471	0.16908433
38	0x3d0eeeab	0.03489558
39	0xbdba76fe	-0.09104727
40	0x3d186be4	0.037212268
41	0xbe24345a	-0.16035596
42	0xbd2090a3	-0.039200436
43	0xbd062306	-0.032748245
44	0xbd85a828	-0.06526214
45	0x3debd197	0.115145855
46	0xbc2212c6	-0.009892171
47	0xbe020968	-0.126989
48	0xbddc4e8b	-0.107571684
49	0x3c348d9b	0.0110200895
50	0xbd2857e2	-0.041099437
51	0x3e0673a1	0.13130046
52	0xbcad5843	-0.02116025
53	0xbd2ba4a2	-0.041905053
54	0x3cfc977e	0.030833956
55	0x3c81fdf1	0.015868159
56	0x38cf9cfe	9.899771e-05
57	0xbd8f1471	-0.06986321
58	0xbe1a81ec	-0.15088624
59	0xbdc8c6d9	-0.09803552
60	0xbe2f4b68	-0.17118609
61	0x3d881549	0.06644685
62	0x3da12b17	0.07869547
63	0x3dc1fc3e	0.094719395
64	0x3e41da23	0.18930869
65	0x3dbcca3a	0.09218259
66	0x3d57e872	0.05271191
67	0x3e3ffa8f	0.18747924
68	0x3cb0eb2f	0.02159652
69	0x3d37170f	0.044699725
70	0x3d2b2cce	0.041790776
71	0xbde0a9ef	-0.10969912
72	0x3df19c22	0.11797358
73	0x3c5582ee	0.013031704
74	0x3e2cfeeb	0.16894118
75	0x3ce28d49	0.02765526
76	0xbdb24e3c	-0.08706328
77	0x3e344715	0.1760524
78	0x3e049479	0.12947263
79	0xbd80d364	-0.062903196
80	0x3d6270c0	0.055283308
81	0xbe069595	-0.13142999
82	0xbd95f792	-0.07322611
83	0xbcf9199e	-0.030407723
84	0xbcb7b9ba	-0.022427429
85	0xbc5a28a7	-0.013315356
86	0xbb3be5a0	-0.0028670803
87	0xbd878379	-0.06616873
88	0x3e0f99c2	0.14023498
89	0xbdb4d1f3	-0.08829107
90	0xbe169fc6	-0.14709386
91	0x3df79f7e	0.120909676
92	0x3cf274af	0.029596655
93	0x3d4e6184	0.050385967
94	0x3da15524	0.078775674
95	0x3deb5f39	0.11492772
96	0xbded4328	-0.11585075
97	0xbd847657	-0.06467884
98	0xbe782b3c	-0.24235243
99	0xbe199cc9	-0.15001215
100	0xbe17acef	-0.14812063
101	0xbdb4f95e	-0.088366255
102	0x3d6f24aa	0.058384575
103	0xbdb2b562	-0.08726002
104	0x3c2057b1	0.009786532
105	0x3df844cf	0.12122499
106	0xbd068a99	-0.03284702
107	0xbdd22bf6	-0.10262291
108	0xbd04c898	-0.032417864
109	0xbc1aa60f	-0.0094390055
110	0x3da8b337	0.082373075
111	0x3cc2e66b	0.023791512
112	0x3e1f8aea	0.15580335
113	0xbe1f8648	-0.15578568
114	0x3e0dd7ef	0.13851903
115	0xbd61d74c	-0.055136964
116	0xbdd5afdd	-0.10433934
117	0xbd007ad0	-0.031367123
118	0x3dc3f23c	0.09567687
119	0x3daab909	0.08336074
120	0xbd1722b6	-0.036898337
121	0x3e0c26de	0.13686702
122	0x3dadbd5c	0.08483383
123	0x3d8513b5	0.064978994
124	0xbd995fb1	-0.07488955
125	0xbd4f85e6	-0.050664805
126	0x3d0e8a29	0.03479973
127	0x3e132678	0.14370143
128	0x3c940788	0.018069997
129	0x3d55341e	0.052051656
130	0xbd832b6e	-0.06404768
131	0xbcf4a3da	-0.029863287
132	0x3c9cabbb	0.019124856
133	0x3deeed55	0.11666361
134	0x3d3690cb	0.04457168
135	0xbd768e38	-0.060194224
136	0x3e05cd80	0.13066673
137	0x3dbadd4d	0.09124241
138	0xbc84342f	-0.016138164
139	0xbc834b49	-0.01602711
140	0x3dc21b38	0.09477848
141	0xbd274126	-0.040833615
142	0xbd490879	-0.049080346
143	0x3d9a38e2	0.07530381
144	0xbdfdb2bb	-0.12387606
145	0x3d9203c7	0.07129627
146	0xbb831989	-0.0040008468
147	0x3e28132f	0.16413568
148	0xbd480b85	-0.04883911
149	0x3e0f47a7	0.13992177
150	0x3e04c452	0.12965515
151	0xbe5fb165	-0.21845014
152	0x3cce5582	0.025187258
153	0xbdc2fbf0	-0.095207095
154	0xbd3d94d5	-0.046284515
155	0x3e01219d	0.12610479
156	0xbd80248e	-0.06256972
157	0xbdd5de7a	-0.10442825
158	0x3d64813b	0.055787306
159	0x3c9c0ac7	0.019048108
160	0x3d21f390	0.03953892
161	0x3ddb47b4	0.10707036
162	0xbdd4bb73	-0.103873156
163	0xbdd8aa27	-0.10579329
164	0x3c097560	0.008389801
165	0x3da8b13d	0.082369305
166	0xbe559b28	-0.20859969
167	0x3c89b326	0.016809057
168	0x3e3195e2	0.17342332
169	0xbdf7b3d1	-0.12094844
170	0x3d908a9c	0.07057688
171	0xbd7df86f	-0.062004503
172	0x3e4cb137	0.19989477
173	0x3daf0b1e	0.08547042
174	0xbc1c1807	-0.009527213
175	0x3dabce9b	0.08389016
176	0x3d5d86f6	0.054083787
177	0x3db18fc8	0.08670002
178	0x3cf8d790	0.030376226
179	0xbde6d6c4	-0.11271432
180	0xbe0aba60	-0.13547659
181	0x3be4a06a	0.0069771307
182	0xbc7afcb7	-0.015319041
183	0x3d44297a	0.047891118
184	0x3d539afd	0.05166148
185	0x3da74a5e	0.08168481
186	0xbe3cca9a	-0.18436661
187	0x3c3174c1	0.010831059
188	0xbdfd0f72	-0.123564616
189	0xbd814eff	-0.063138954
190	0x3e3f72a3	0.18696074
191	0xbdbb080a	-0.09132393
192	0xbe265597	-0.16243587
193	0x3c8224bb	0.015886655
194	0x3da27e92	0.079342976
195	0xbd8fb62f	-0.07017171
196	0xbd9c4443	-0.076302074
197	0xbdd2e192	-0.102969304
198	0xbdc78a8a	-0.09743221
199	0x3d453e54	0.048155144
200	0x3da89aba	0.08232637
201	0xbd7da5b9	-0.061925624
202	0x3e1940ae	0.1496608
203	0x3c27588c	0.010213982
204	0x3d62da81	0.055384163
205	0x3dbba4f3	0.09162321
206	0xbdd05188	-0.10171801
207	0x3d77aa8f	0.06046539
208	0x3d8e2ba0	0.069419146
209	0x3ddd7bea	0.1081465
210	0xbd2e9949	-0.042626653
211	0xbd9a18c3	-0.07524254
212	0xbd1e95d2	-0.0387171
213	0x3d21b586	0.039479755
214	0x3cdbccfb	0.02683114
215	0x3d1f2e71	0.03886265
216	0xbd9dab67	-0.07698708
217	0xbd272319	-0.040804956
218	0xbb224234	-0.0024758698
219	0xbd8570a0	-0.06515622
220	0xbda759ed	-0.08171449
221	0xbdace946	-0.08442931
222	0x3d803c4d	0.062615015
223	0xbd8522da	-0.06500788
224	0x3cec44da	0.028841425
225	0xbde8c026	-0.113647744
226	0x3e4dd437	0.20100485
227	0x3da49693	0.08036532
228	0x3d9dcb4e	0.07704793
229	0xbcf92227	-0.030411793
230	0xbe08c599	-0.13356628
231	0x3db5bad6	0.08873527
232	0xbaa8e5a9	-0.0012885827
233	0xbcd7594a	-0.026287694
234	0x3dbf8324	0.09351185
235	0x3e6b9153	0.23004656
236	0x3d2e303a	0.04252646
237	0x3e2220a8	0.1583277
238	0x3cf7f9e4	0.030270524
239	0xbd128caa	-0.03577868
240	0xbd44a433	-0.048008155
241	0x3d1ac820	0.03778851
242	0x3e1b71a5	0.1518007
243	0xbe176f3d	-0.14788528
244	0xbd077d1f	-0.03307831
245	0xbe1cb81d	-0.15304609
246	0x3e1e9565	0.15486677
247	0x3d9db8ff	0.07701301
248	0xbd88fb90	-0.06688607
249	0x3db8c958	0.09022778
250	0x3ab5c1ef	0.0013867001
251	0xbdcf2757	-0.10114925
252	0x3d58943d	0.052875746
253	0x3d975dfe	0.073909745
254	0xbe0b272d	-0.13589163
255	0x3e10d90e	0.141453

model.4.bias f4 [64]
0	0x3d96ceb6	0.07363646
1	0x3dc25d98	0.09490508
2	0x3cff8d4e	0.031195309
3	0x3d565246	0.052324556
4	0xbc9fc724	-0.019504137
5	0x3deeead9	0.116658874
6	0x3bfc49c1	0.007699222
7	0x3d0e24ab	0.034702938
8	0xbc6174e7	-0.013760782
9	0xbc8e7a4d	-0.017392302
10	0xbd8f7433	-0.07004585
11	0x3c5a80db	0.013336386
12	0xbcd07f66	-0.025451373
13	0x3e0334dd	0.12813134
14	0x3c91bb98	0.017789647
15	0xbd8afc53	-0.06786408
16	0xbbec81c9	-0.00721762
17	0x3cdf6788	0.027271047
18	0xbb56801a	-0.0032730163
19	0xbdb024fd	-0.08600805
20	0x3cb145d8	0.02163975
21	0xbded52e9	-0.115880795
22	0x3db7a91f	0.08967804
23	0xbd2d57bd	-0.042320002
24	0x3e0d5862	0.13803247
25	0x3da07cb7	0.078362875
26	0x3db87c37	0.09008067
27	0x3e031546	0.12801084
28	0xbc12def7	-0.008964292
29	0x3db7f926	0.08983068
30	0xb8e5abd6	-0.00010951578
31	0x3d7f95f3	0.062398862
32	0x3c52319a	0.012829209
33	0x3dee2491	0.11628068
34	0x3e156716	0.14590105
35	0xbc4e4d6d	-0.012591702
36	0x3d63c576	0.055608235
37	0xbb0b4a48	-0.0021253992
38	0x3d03ee28	0.032209545
39	0x3d69c9d8	0.05707726
40	0x3d35ef25	0.04441752
41	0x3bfa9e1e	0.0076482436
42	0xbccd321d	-0.02504831
43	0x3e06afbb	0.13152973
44	0x3dd83356	0.105566666
45	0xbd92638a	-0.07147892
46	0x3e1eba98	0.15500867
47	0x3da90e99	0.082547374
48	0x3dc5e94f	0.09663641
49	0x3dff42eb	0.124639355
50	0x3ce64c40	0.02811253
51	0x3d8d6539	0.06904072
52	0x3d0b6058	0.034027427
53	0x3dd955d1	0.10612071
54	0xbd8bd92b	-0.06828531
55	0x3e078ee2	0.13238099
56	0x3d8d65d4	0.06904188
57	0xbd992957	-0.07478588
58	0xbd2d47a6	-0.042304657
59	0x3d1a9409	0.037738834
60	0xbdecaec5	-0.11556772
61	0xbda27b92	-0.079337254
62	0x3dc9d05b	0.09854194
63	0xbce2c7c2	-0.027683143

model.7.weight f4 [10, 64]
0	0xbdb4a576	-0.08820622
1	0xbe53e727	-0.20693646
2	0xbb7a7994	-0.003821944
3	0x3d9a0961	0.0752132
4	0x3decdec9	0.115659304
5	0x3cce1513	0.025156533
6	0x3db1ea7e	0.08687304
7	0x3d8d9868	0.06913835
8	0xbddefcee	-0.10888086
9	0xbddfddb4	-0.109309584
10	0xbe4f5a7d	-0.20249362
11	0x3db3703f	0.087616436
12	0xbd0bd8be	-0.03414225
13	0x3e22cac9	0.15897669
14	0xbdf63def	-0.12023532
15	0x3d1b5873	0.03792615
16	0xbe0c3a46	-0.13694105
17	0xbd862d26	-0.0655158
18	0xbe22e3b3	-0.15907173
19	0x3da2e874	0.07954493
20	0xbc8749e2	-0.016514722
21	0xbc528a50	-0.012850359
22	0xbdcbf09e	-0.099580035
23	0x3c5c8c90	0.013461247
24	0xbe61ae22	-0.22039083
25	0xbd0b593e	-0.034020655
26	0x3c28282b	0.010263483
27	0x3c94bae1	0.018155517
28	0xbe1ac156	-0.15112814
29	0x3dd87e8e	0.105710134
30	0x3e22e740	0.15908527
31	0x3dd74301	0.10510827
32	0xbdbf2171	-0.0933255
33	0xbe6fc253	-0.23413973
34	0xbdd7cf17	-0.10537546
35	0xbe20c7f6	-0.15701279
36	0xbdaeddf2	-0.085384265
37	0xbdd6c52c	-0.10486826
38	0xbe52cb70	-0.20585418
39	0xbe1132f7	-0.14179598
40	0xbe18c562	-0.14919046
41	0x3da2bda7	0.079463296
42	0xbe3d8216	-0.18506655
43	0x3da1a4f9	0.07892794
44	0xbdc6191a	-0.096727565
45	0x3cbe5aa9	0.02323659
46	0x3d673ffc	0.056457505
47	0x3e1cbf6d	0.15307398
48	0x3e182f84	0.14861876
49	0x3af50df9	0.0018696181
50	0xbe1a8a13	-0.15091734
51	0xbdcd1dcf	-0.10015451
52	0xbd84c93a	-0.064836934
53	0xbda99cab	-0.08281835
54	0xbdcbfaec	-0.09959969
55	0xbde822ba	-0.113347486
56	0x3d9d2f52	0.07675041
57	0x3bbd8699	0.0057838676
58	0xbe02dff7	-0.12780748
59	0x3df90803	0.12159731
60	0x3d86fce3	0.06591203
61	0x3e03782e	0.12838814
62	0x3de6ce2f	0.11269795
63	0x3df2c5e2	0.118541494
64	0xbd5c3d5c	-0.053769454
65	0xbc1bb090	-0.009502545
66	0x3bb1ba32	0.0054238075
67	0x3d6949d7	0.056955185
68	0xbe019944	-0.12656122
69	0x3deb392c	0.11485514
70	0x3d84015a	0.0644557
71	0xbe0e44b9	-0.13893403
72	0x3b1f5de8	0.0024317447
73	0xbdf89f74	-0.12139788
74	0xbe1049ff	-0.14090727
75	0xbd90bb08	-0.070669234
76	0xbd5ad68c	-0.053427264
77	0xbe361db0	-0.17784762
78	0x3daa053d	0.083017804
79	0xb9666c6b	-0.00021974898
80	0x3db75be6	0.08953075
81	0xbe68b8ea	-0.22726789
82	0x3e113bab	0.14182918
83	0x3c81a020	0.015823424
84	0x3e1f5208	0.15558636
85	0xbd87f800	-0.06639099
86	0xbe140589	-0.14455236
87	0x3d942f4b	0.07235583
88	0x3dbbf67a	0.09177871
89	0x3e4983f2	0.1967924
90	0xbd1b1f38	-0.03787157
91	0xbdee1ea1	-0.11626936
92	0x3de52f91	0.11190713
93	0xbe0912c7	-0.13386069
94	0x3cfa1087	0.030525459
95	0xbda0f176	-0.07858555
96	0xbdaa76a0	-0.08323407
97	0x3e0a193d	0.1348619
98	0x3d5436d7	0.05181011
99	0x3d6a6b2b	0.05723111
100	0x3dd18790	0.102309346
101	0x3db4a464	0.088204175
102	0x3dd41465	0.103554524
103	0xbd950771	-0.0727681
104	0x3d4f986b	0.050682466
105	0xbe06bb4d	-0.13157387
106	0x3de51e09	0.111873694
107	0xbdfbca16	-0.12294404
108	0xbe4b014d	-0.19824715
109	0x3e129018	0.1431278
110	0x3e262fc9	0.16229166
111	0xbda80196	-0.082034275
112	0xbe2079f0	-0.15671515
113	0xbde45493	-0.11148944
114	0x3c85e74f	0.016345648
115	0xbe31c9c1	-0.1736212
116	0x3c87d7f2	0.016582463
117	0x3e071d06	0.13194665
118	0xbe5188d9	-0.2046236
119	0x3b4fd3cd	0.0031711936
120	0xbe2de146	-0.16980466
121	0x3d33d3ae	0.043903045
122	0xbcf9f352	-0.030511532
123	0xbda148bb	-0.078752
124	0xbe04fcdc	-0.12987083
125	0xbe1db22f	-0.15400003
126	0x3dc44a44	0.095844775
127	0xbd753c0e	-0.059871726
128	0x3c767067	0.015041447
129	0x3e3ebf64	0.18627697
130	0x3e069aed	0.13145037
131	0x3d4beb7e	0.04978513
132	0xbc6a9a1c	-0.014318969
133	0x3c7596e1	0.014989586
134	0xbd446056	-0.047943436
135	0x3d249d41	0.04018903
136	0x3e3ef47e	0.18647954
137	0xbc005d4d	-0.007834745
138	0xbd4462eb	-0.047945898
139	0xbe02e7aa	-0.12783685
140	0x3d16b534	0.036793903
141	0x3d90d90a	0.07072647
142	0x3e1f5d5a	0.15562955
143	0x3d9091f2	0.07059087
144	0x3e0ade12	0.13561276
145	0xbe55e3a6	-0.20887622
146	0x3d8da457	0.06916111
147	0xbc1db682	-0.009626033
148	0x3d08b256	0.0333732
149	0x3e81f5e9	0.25382927
150	0x3e4a5ddd	0.19762369
151	0xbdc924b2	-0.09821452
152	0xbd929ee6	-0.07159214
153	0xbba6d480	-0.00509125
154	0xbdb9c363	-0.0907047
155	0x3e0b0bd4	0.13578731
156	0x3cc87005	0.024467478
157	0xbb3bef2d	-0.0028676495
158	0xbd99e956	-0.075152084
159	0x3d0d6d2a	0.034527935
160	0x3d867481	0.0656519
161	0xbe71e06e	-0.2362077
162	0xbe516423	-0.20448355
163	0x3c644494	0.013932366
164	0x3a61677b	0.00085984886
165	0x3d1a059b	0.037603002
166	0xbe2c0796	-0.16799769
167	0xbb22cf60	-0.0024842843
168	0xbcd21046	-0.025642525
169	0xbdcff4bd	-0.10154102
170	0xbd541caf	-0.051785167
171	0xbdce6257	-0.100773506
172	0xbda7ec01	-0.08199311
173	0x3e0c5add	0.13706537
174	0xbe5a515e	-0.21320102
175	0xbc191d46	-0.009345358
176	0xbd2ef28b	-0.042711776
177	0x3e1385ca	0.14406505
178	0x3cede75e	0.029040989
179	0xbe4e0a97	-0.20121227
180	0x3d81cada	0.06337519
181	0xbdfbda10	-0.122974515
182	0xbd943636	-0.072369024
183	0xbbcab034	-0.006185556
184	0xbd00b336	-0.03142091
185	0x3dafbcad	0.08580909
186	0x3de7e20c	0.11322412
187	0x3da859a4	0.082202226
188	0x3db642da	0.0889947
189	0xbbecace9	-0.007222761
190	0xbdb15e46	-0.08660559
191	0xbd2a2488	-0.041538745
192	0x3dde1709	0.10844237
193	0xbd89bddf	-0.06725668
194	0x3df5579d	0.119796015
195	0xbe2d4aa6	-0.16923007
196	0xbe3b90b0	-0.18316913
197	0xbc182469	-0.009286025
198	0x3cdd9da6	0.027052712
199	0xbd049d7f	-0.032376762
200	0xbdcf182e	-0.10112034
201	0xbd8601e3	-0.065433286
202	0x3b806ffc	0.0039195996
203	0x3db93f56	0.090452835
204	0xbdc1eb34	-0.094686896
205	0xbe31efaa	-0.17376581
206	0x3db75e3f	0.08953523
207	0xbc2f2afb	-0.0106914
208	0x3e1743a8	0.14771903
209	0x3dac5b76	0.08415882
210	0xbe283bd6	-0.16429076
211	0x3ca7fe72	0.020507071
212	0xbdc15b7d	-0.09441278
213	0xbdeb6725	-0.11494283
214	0xbe077330	-0.13227534
215	0xbd94ce97	-0.072659664
216	0x3ce0178f	0.027354984
217	0xbe5f62b4	-0.21814996
218	0x3d09499a	0.033517458
219	0x3c9a2906	0.01881839
220	0xbdfb57a5	-0.12272576
221	0xbd3eabe0	-0.04655063
222	0xbe549f4a	-0.20763889
223	0x3dbc0e26	0.09182386
224	0x3cdc39f7	0.026883109
225	0x3d98e38e	0.074652776
226	0xbcb27890	-0.021786004
227	0x3b0fb317	0.0021926814
228	0x3d70876b	0.058722895
229	0x3dea048c	0.114266485
230	0xbe117f29	-0.14208664
231	0x3ca89361	0.020578088
232	0xbdfc4f5e	-0.123198256
233	0x3cdd2aa5	0.026997874
234	0xbe1b2962	-0.15152505
235	0xbe1e26f3	-0.15444545
236	0x3dfa2bb7	0.12215369
237	0x3cead886	0.0286677
238	0x3d8d9a22	0.06914164
239	0xbe6a372e	-0.22872612
240	0x3d35fdef	0.044431623
241	0x3da95762	0.0826862
242	0xbd6d7f59	-0.057982776
243	0xbe38fe83	-0.18065839
244	0xbdae7547	-0.08518463
245	0x3dea147c	0.11429688
246	0xbcffb7b0	-0.031215519
247	0x3dde1c89	0.108452864
248	0x3dbdf0da	0.092744544
249	0x3e313d77	0.17308603
250	0x3c1b2746	0.009469813
251	0x3e15cae6	0.14628181
252	0x3e04d9ee	0.12973759
253	0xbce96328	-0.028489664
254	0x3db80c09	0.089866705
255	0xbd99fea6	-0.075192735

model.7.bias f4 [10]
0	0x3c0cd1ce	0.008594943
1	0xbdd932e5	-0.106054105
2	0xbd33f9fe	-0.043939583
3	0x3d8efd4d	0.06981907
4	0xbdd1760e	-0.10227595
5	0xbd2e2d13	-0.042523455
6	0xbcb8537b	-0.022500744
7	0x3d1bca5f	0.038034793
8	0x3dd747cb	0.1051174
9	0xbcc95ca0	-0.0245803

exp_avg f4 [64, 784]
0	0x39940b92	0.0002823738
1	0x39940b92	0.0002823738
2	0x39940b92	0.0002823738
3	0x39940b92	0.0002823738
4	0x39940b92	0.0002823738
5	0x39940b92	0.0002823738
6	0x39940b92	0.0002823738
7	0x39940b92	0.0002823738
8	0x39940b92	0.0002823738
9	0x39940b92	0.0002823738
10	0x39940b92	0.0002823738
11	0x39940b92	0.0002823738
12	0x3993fb6b	0.00028225346
13	0x3992aeb2	0.00027977448
14	0x3992aeb2	0.00027977448
15	0x3993fd08	0.00028226548
16	0x39940b92	0.0002823738
17	0x39940b92	0.0002823738
18	0x39940b92	0.0002823738
19	0x39940b92	0.0002823738
20	0x39940b92	0.0002823738
21	0x39940b92	0.0002823738
22	0x39940b92	0.0002823738
23	0x39940b92	0.0002823738
24	0x39940b92	0.0002823738
25	0x39940b92	0.0002823738
26	0x39940b92	0.0002823738
27	0x39940b92	0.0002823738
28	0x39940b92	0.0002823738
29	0x39940b92	0.0002823738
30	0x39940b92	0.0002823738
31	0x39940b92	0.0002823738
32	0x39940b92	0.0002823738
33	0x39940b92	0.0002823738
34	0x39940ba2	0.00028237427
35	0x39942d5c	0.00028262555
36	0x399692b9	0.00028719546
37	0x39a18b37	0.00030812036
38	0x39a2211e	0.00030923722
39	0x3994132e	0.0002824305
40	0x3995926e	0.00028528593
41	0x399c0876	0.00029760943
42	0x399cc238	0.00029899343
43	0x3993ab04	0.00028165441
44	0x399734ab	0.00028840205
45	0x39995c3a	0.00029251148
46	0x3995ae7a	0.0002854949
47	0x399418c3	0.0002824721
48	0x3997b87d	0.0002893842
49	0x39c51cd2	0.0003759624
50	0x39d181b1	0.00039960214
51	0x39991d72	0.00029204373
52	0x39940b92	0.0002823738
53	0x39940b92	0.0002823738
54	0x39940b92	0.0002823738
55	0x39940b92	0.0002823738
56	0x39940b92	0.0002823738
57	0x39940b92	0.0002823738
58	0x39940b92	0.0002823738
59	0x39940b94	0.00028237386
60	0x39940d3a	0.00028238614
61	0x39940bae	0.00028237462
62	0x39940c20	0.00028237794
63	0x39944331	0.0002827882
64	0x399759e4	0.00028867938
65	0x39ae2094	0.0003321214
66	0x39abb4d1	0.0003275038
67	0x398ff780	0.00027459487
68	0x398cf2cf	0.00026883787
69	0x398fde5e	0.00027440762
70	0x398dae83	0.00027023637
71	0x39811c44	0.00024625857
72	0x3996f218	0.00028790603
73	0x39aa81c4	0.0003252161
74	0x39992531	0.00029210144
75	0x39b49ea8	0.00034450484
76	0x39c09b25	0.00036736685
77	0x39c185e1	0.00036911576
78	0x3a0019ef	0.0004886677
79	0x39b96e53	0.00035368148
80	0x399417b4	0.0002824642
81	0x39940bae	0.00028237462
82	0x39940b92	0.0002823738
83	0x39940b92	0.0002823738
84	0x39940b92	0.0002823738
85	0x39940b92	0.0002823738
86	0x39940b92	0.0002823738
87	0x39940b98	0.00028237398
88	0x39940b94	0.00028237386
89	0x39940e6e	0.0002823951
90	0x399420f8	0.00028253323
91	0x3994e503	0.00028399387
92	0x3984bcbb	0.00025317617
93	0x3989b0e2	0.00026262464
94	0x39c633dd	0.00037804144
95	0x39afc926	0.00033528468
96	0x399eaefb	0.0003026648
97	0x3992db64	0.0002801075
98	0x395f9d3e	0.00021325515
99	0x3a3557bc	0.00069176755
100	0x3a20dd4b	0.0006136491
101	0x39a53a1f	0.00031514556
102	0x39f8a65e	0.000474262
103	0x3993109e	0.00028050406
104	0x39b2c17e	0.0003409497
105	0x3a136227	0.0005622231
106	0x3a20352f	0.00061114406
107	0x39e3465c	0.00043349236
108	0x3993f9f4	0.00028224254
109	0x39940ecc	0.00028239784
110	0x39940b92	0.0002823738
111	0x39940b92	0.0002823738
112	0x39940b92	0.0002823738
113	0x39940b92	0.0002823738
114	0x39940b92	0.0002823738
115	0x39940a3e	0.0002823639
116	0x39944828	0.0002828252
117	0x398f40f9	0.00027323494
118	0x3985e09e	0.0002553509
119	0x3977793f	0.00023600923
120	0x3878c125	5.9307687e-05
121	0x3939ccfc	0.00017719337
122	0x39bbe2d3	0.00035836417
123	0x39a8382a	0.00032085303
124	0x39a4cd8f	0.0003143367
125	0x39b45dd0	0.0003440217
126	0x3a4c76d3	0.00077996886
127	0x3a85ee89	0.0010218184
128	0x3a8236c2	0.0009934532
129	0x3a2e5042	0.00066495326
130	0x39ede6f1	0.00045376227
131	0x39a92aad	0.00032265988
132	0x3a304a1a	0.0006724909
133	0x3a5888dd	0.00082601403
134	0x3a4afe4e	0.0007743583
135	0x3a0fc554	0.0005484421
136	0x3992a8f2	0.00027973164
137	0x39937a9f	0.00028129385
138	0x39941888	0.00028247037
139	0x39941233	0.0002824232
140	0x39940b92	0.0002823738
141	0x39940b92	0.0002823738
142	0x39940b92	0.0002823738
143	0x3993c44e	0.00028184283
144	0x399ad86c	0.00029534416
145	0x399d3020	0.0002998123
146	0x39971cf9	0.0002882255
147	0x38a5bc13	7.902845e-05
148	0xb89f61fa	-7.5999604e-05
149	0x38c23807	9.261077e-05
150	0x38f27062	0.00011560392
151	0x3978fc4a	0.00023745108
152	0x3a179ec6	0.0005783852
153	0x3a74935f	0.00093298213
154	0x3a80fef4	0.0009841607
155	0x3a207099	0.0006120294
156	0xb9eb0b21	-0.00044830985
157	0xb9b58d08	-0.00034628087
158	0x39e87f9c	0.00044345565
159	0x3a092336	0.0005231382
160	0x3a2f3e48	0.0006685001
161	0x3a42f452	0.0007436919
162	0x3a1c13e8	0.0005953894
163	0x39a05a0c	0.00030584668
164	0x398c7bcf	0.00026795125
165	0x39cc864e	0.00039009977
166	0x39c0c625	0.00036768723
167	0x39940b92	0.0002823738
168	0x39940b92	0.0002823738
169	0x39940b92	0.0002823738
170	0x39940b92	0.0002823738
171	0x3993ccbb	0.0002819056
172	0x3994d845	0.00028389893
173	0x399bac58	0.0002969231
174	0x390e8ef0	0.00013595424
175	0xb7b9d071	-2.2150782e-05
176	0xb7eb20ae	-2.80294e-05
177	0x397f73aa	0.00024361783
178	0x3a1e315f	0.00060345785
179	0x3a068d84	0.0005132782
180	0x39b70b57	0.0003491293
181	0x385c825d	5.2573498e-05
182	0x39e49e66	0.00043605565
183	0xb98bceee	-0.0002666632
184	0xbae5d659	-0.0017535194
185	0xbaa34c5f	-0.0012458673
186	0xb9d592d9	-0.00040735936
187	0xb99494bb	-0.00028339573
188	0xb95e07d7	-0.0002117449
189	0x388f4b01	6.832742e-05
190	0x367e66c3	3.7908765e-06
191	0x3956cb13	0.00020484281
192	0x39d3e7c3	0.00040417732
193	0x39ee73cf	0.00045481182
194	0x3992fc41	0.00028035234
195	0x39a502c1	0.00031473304
196	0x39940b92	0.0002823738
197	0x39940b92	0.0002823738
198	0x39940b92	0.0002823738
199	0x398ee70c	0.00027256494
200	0x39736aa2	0.0002321401
201	0x39515c19	0.00019966102
202	0xb8fb931c	-0.00011996014
203	0xb9184889	-0.00014522871
204	0xba2945d2	-0.00064572424
205	0xba12a6e4	-0.00055943266
206	0xb9c11513	-0.0003682753
207	0xb90376a0	-0.00012537325
208	0x382e5334	4.156232e-05
209	0xba08d38c	-0.0005219511
210	0xb8aa1377	-8.109857e-05
211	0xb9cd6953	-0.0003917912
212	0xbae1f801	-0.0017240049
213	0xba6f13eb	-0.00091200945
214	0xb97e2614	-0.00024237513
215	0xba837e5a	-0.0010032163
216	0xba47e561	-0.00076254277
217	0xba2d730b	-0.0006616569
218	0xb8b115f1	-8.4441046e-05
219	0x39fe644f	0.0004852139
220	0x39c60fa6	0.00037777162
221	0x39a0142f	0.00030532616
222	0x399ec435	0.00030282294
223	0x399f0915	0.0003033361
224	0x39940b92	0.0002823738
225	0x39940b92	0.0002823738
226	0x39940b92	0.0002823738
227	0x39882baa	0.00025972474
228	0x39624af3	0.0002158096
229	0x393f3337	0.00018234258
230	0xb97687ba	-0.0002351095
231	0xb9e9b145	-0.000445733
232	0xba36aebe	-0.00069687876
233	0xba0eb9ff	-0.00054445857
234	0xba515583	-0.00079854595
235	0xba523325	-0.00080184854
236	0xb9e6b099	-0.00044000594
237	0xba182252	-0.0005803454
238	0x39965aab	0.00028677782
239	0x393c4363	0.0001795418
240	0xb9d005ea	-0.00039677258
241	0xb951fd61	-0.00020026184
242	0xb909c945	-0.00013140317
243	0xba67383e	-0.00088203314
244	0xba620e5d	-0.0008623356
245	0xb9aedeae	-0.00033353776
246	0x395f6a88	0.00021306623
247	0x399e1941	0.00030154924
248	0x39305a79	0.00016818372
249	0x39745597	0.00023301538
250	0x39a54592	0.00031523086
251	0x39940b93	0.00028237383
252	0x39940b92	0.0002823738
253	0x39940b92	0.0002823738
254	0x39940b9b	0.00028237407
255	0x39880c35	0.00025949036

exp_avg_sq f4 [64, 784]
0	0x3598171e	1.133161e-06
1	0x3598171e	1.133161e-06
2	0x3598171e	1.133161e-06
3	0x3598171e	1.133161e-06
4	0x3598171e	1.133161e-06
5	0x3598171e	1.133161e-06
6	0x3598171e	1.133161e-06
7	0x3598171e	1.133161e-06
8	0x3598171e	1.133161e-06
9	0x3598171e	1.133161e-06
10	0x3598171e	1.133161e-06
11	0x3598171e	1.133161e-06
12	0x359845bd	1.1345179e-06
13	0x3598adda	1.137548e-06
14	0x359819af	1.1332357e-06
15	0x35981735	1.1331637e-06
16	0x3598171e	1.133161e-06
17	0x3598171e	1.133161e-06
18	0x3598171e	1.133161e-06
19	0x3598171e	1.133161e-06
20	0x3598171e	1.133161e-06
21	0x3598171e	1.133161e-06
22	0x3598171e	1.133161e-06
23	0x3598171e	1.133161e-06
24	0x3598171e	1.133161e-06
25	0x3598171e	1.133161e-06
26	0x3598171e	1.133161e-06
27	0x3598171e	1.133161e-06
28	0x3598171e	1.133161e-06
29	0x3598171e	1.133161e-06
30	0x3598171e	1.133161e-06
31	0x3598171e	1.133161e-06
32	0x3598171c	1.1331608e-06
33	0x35981378	1.1330549e-06
34	0x3599f7f2	1.147155e-06
35	0x359c396f	1.1639621e-06
36	0x359e2b7a	1.1784571e-06
37	0x35980672	1.1326758e-06
38	0x35972cd0	1.1263419e-06
39	0x35963b02	1.1193044e-06
40	0x359606ea	1.1177883e-06
41	0x3597d41f	1.1312112e-06
42	0x359c540b	1.1647365e-06
43	0x359692c9	1.1218591e-06
44	0x3598122f	1.1330175e-06
45	0x3596ba3e	1.1230075e-06
46	0x3597f539	1.1321746e-06
47	0x359905b7	1.1401052e-06
48	0x35965f3d	1.1203589e-06
49	0x35985d22	1.1351988e-06
50	0x359c14d4	1.1628968e-06
51	0x359b0866	1.1550844e-06
52	0x3598171e	1.133161e-06
53	0x3598171e	1.133161e-06
54	0x3598171e	1.133161e-06
55	0x3598171e	1.133161e-06
56	0x3598171e	1.133161e-06
57	0x3598171e	1.133161e-06
58	0x3598171e	1.133161e-06
59	0x3597f916	1.132287e-06
60	0x3598096d	1.1327626e-06
61	0x35980a09	1.1327803e-06
62	0x3598ea3c	1.1393054e-06
63	0x35a1b70f	1.2048712e-06
64	0x35a1d0b6	1.2056178e-06
65	0x359a1c0e	1.1482059e-06
66	0x359ccc61	1.1682388e-06
67	0x35996486	1.1428644e-06
68	0x35977715	1.1285034e-06
69	0x35a21030	1.2074652e-06
70	0x35b1c377	1.3244415e-06
71	0x35b346cf	1.3357147e-06
72	0x35b612ca	1.3565525e-06
73	0x35ae4f44	1.298708e-06
74	0x35ac413e	1.2833987e-06
75	0x359ca6bd	1.1671433e-06
76	0x3598a5ed	1.1373173e-06
77	0x359927f5	1.1411017e-06
78	0x359e7101	1.1804806e-06
79	0x359af1b1	1.1544236e-06
80	0x3598670c	1.1354873e-06
81	0x35981d80	1.1333468e-06
82	0x3598171e	1.133161e-06
83	0x3598171e	1.133161e-06
84	0x3598171e	1.133161e-06
85	0x3598171e	1.133161e-06
86	0x3598170c	1.133159e-06
87	0x3597df02	1.131528e-06
88	0x3597a80e	1.1299287e-06
89	0x35978e6b	1.1291826e-06
90	0x359a4986	1.1495292e-06
91	0x35a3f5f2	1.2216026e-06
92	0x359feeba	1.1915902e-06
93	0x359d8d3f	1.173852e-06
94	0x35a2c193	1.2126278e-06
95	0x35a5c735	1.2351435e-06
96	0x35a7de0a	1.2507091e-06
97	0x35d913a1	1.6173473e-06
98	0x35e7edc4	1.728004e-06
99	0x360688d0	2.0047191e-06
100	0x360924f9	2.0436112e-06
101	0x3600146a	1.908537e-06
102	0x35f19164	1.7998213e-06
103	0x35e3ab73	1.6962716e-06
104	0x35c1a43f	1.4427422e-06
105	0x35b04995	1.3134437e-06
106	0x35a34312	1.2163966e-06
107	0x359f9b3d	1.1891603e-06
108	0x359bb54e	1.1601167e-06
109	0x35980076	1.1325017e-06
110	0x3598172f	1.133163e-06
111	0x3598171e	1.133161e-06
112	0x3598171e	1.133161e-06
113	0x359817b6	1.1331783e-06
114	0x35981543	1.133107e-06
115	0x359800a4	1.1325069e-06
116	0x3597af52	1.1301402e-06
117	0x3597f804	1.1322559e-06
118	0x359ebcf2	1.1826908e-06
119	0x35ab9de0	1.278644e-06
120	0x35b5332b	1.3500443e-06
121	0x35bf5fa7	1.4258447e-06
122	0x35d2f9a3	1.5718873e-06
123	0x35e01e62	1.6698143e-06
124	0x35ffb764	1.9052354e-06
125	0x3621c0ba	2.4103051e-06
126	0x365176e9	3.1212642e-06
127	0x36656c3b	3.4186658e-06
128	0x365db515	3.303697e-06
129	0x364457d3	2.9257396e-06
130	0x3648c831	2.991885e-06
131	0x361e4547	2.358416e-06
132	0x360dfec7	2.1158937e-06
133	0x35e21ea7	1.6847233e-06
134	0x35d7bbc1	1.6073392e-06
135	0x35bbb9f1	1.3986702e-06
136	0x35a6a26d	1.2415236e-06
137	0x35a5af60	1.2344499e-06
138	0x359cc14c	1.1679163e-06
139	0x3598f053	1.1394826e-06
140	0x3598171e	1.133161e-06
141	0x3598171e	1.133161e-06
142	0x359811aa	1.1330023e-06
143	0x3598496a	1.1346249e-06
144	0x359acf70	1.1534266e-06
145	0x35a56215	1.2322004e-06
146	0x35b29f64	1.3308422e-06
147	0x35c868e9	1.4931694e-06
148	0x35d7c6c9	1.6076602e-06
149	0x3605254b	1.9840252e-06
150	0x3622cf79	2.4260646e-06
151	0x365a1b91	3.2500577e-06
152	0x3695be3b	4.462692e-06
153	0x36c57742	5.884941e-06
154	0x36dcb062	6.5770446e-06
155	0x36d959c4	6.477554e-06
156	0x36e8338d	6.92014e-06
157	0x36c8b9cb	5.9820936e-06
158	0x36adbacd	5.1775482e-06
159	0x36968a88	4.4864755e-06
160	0x366b54fd	3.5067198e-06
161	0x362d86d1	2.5857482e-06
162	0x3608ff49	2.0414175e-06
163	0x35f2b1cf	1.8082154e-06
164	0x35ddf4b9	1.6537007e-06
165	0x35a77124	1.2475398e-06
166	0x359b1874	1.1555517e-06
167	0x3598bf47	1.1380552e-06
168	0x3598171e	1.133161e-06
169	0x3598171e	1.133161e-06
170	0x35980c10	1.1328393e-06
171	0x359c0c94	1.1626566e-06
172	0x35a55312	1.2317635e-06
173	0x35b1e454	1.325398e-06
174	0x35def101	1.661043e-06
175	0x36037e39	1.9593992e-06
176	0x362dcbf9	2.5897737e-06
177	0x36622369	3.3697236e-06
178	0x36b846be	5.491863e-06
179	0x37014b1c	7.706487e-06
180	0x372ef727	1.0428753e-05
181	0x37499380	1.2014876e-05
182	0x37530578	1.2577853e-05
183	0x3759755f	1.29615355e-05
184	0x3757b39d	1.2856818e-05
185	0x3743e833	1.1676969e-05
186	0x371904e5	9.12065e-06
187	0x36eb3d60	7.0106908e-06
188	0x36c56f93	5.8840465e-06
189	0x36a51789	4.920123e-06
190	0x3681f97a	3.8735425e-06
191	0x363181a3	2.6450514e-06
192	0x35e3f5fa	1.6984407e-06
193	0x35aeacd6	1.3014312e-06
194	0x359d2b13	1.1709948e-06
195	0x35985a39	1.1351141e-06
196	0x3598171a	1.1331606e-06
197	0x35981791	1.1331741e-06
198	0x35980fd2	1.1329487e-06
199	0x359bf3c0	1.161934e-06
200	0x35ac1cf1	1.2823422e-06
201	0x35ca5cf6	1.5077228e-06
202	0x360e19c5	2.1174649e-06
203	0x3638aea6	2.7519795e-06
204	0x368ac7d5	4.135984e-06
205	0x36ceb02f	6.159789e-06
206	0x3715d325	8.930253e-06
207	0x374feef7	1.23938e-05
208	0x377800ae	1.478211e-05
209	0x3782471d	1.5530322e-05
210	0x37839d30	1.5689613e-05
211	0x37824ad5	1.5532054e-05
212	0x3786dbbc	1.6076367e-05
213	0x376eccdb	1.4233602e-05
214	0x3745bcaf	1.1786046e-05
215	0x3722d616	9.705798e-06
216	0x3705e476	7.9806105e-06
217	0x370148ea	7.705976e-06
218	0x36c0d19c	5.7464476e-06
219	0x3683ac63	3.9241727e-06
220	0x361c0051	2.3245996e-06
221	0x35d8e703	1.6160487e-06
222	0x35a9a878	1.2640512e-06
223	0x35983ee0	1.1343182e-06
224	0x35981867	1.1331985e-06
225	0x35979816	1.129464e-06
226	0x359853c5	1.1349263e-06
227	0x359b40f4	1.1567304e-06
228	0x35bc12cb	1.4012561e-06
229	0x35dd6ed0	1.6498034e-06
230	0x36224c0f	2.4184153e-06
231	0x367719db	3.6820918e-06
232	0x36c0661b	5.7339325e-06
233	0x37173139	9.011762e-06
234	0x37471a06	1.1867383e-05
235	0x37771e8c	1.47294595e-05
236	0x37928409	1.746604e-05
237	0x379bbb57	1.8564677e-05
238	0x378464a7	1.5782496e-05
239	0x377caae9	1.5060164e-05
240	0x37853650	1.5880127e-05
241	0x37831195	1.5624604e-05
242	0x3779ddfb	1.489324e-05
243	0x37523d26	1.2531213e-05
244	0x373ff6d5	1.1441957e-05
245	0x371c4086	9.313348e-06
246	0x36e154f5	6.715413e-06
247	0x3694c849	4.43406e-06
248	0x36373907	2.730232e-06
249	0x35d99b59	1.6212972e-06
250	0x35a3381d	1.2160777e-06
251	0x359a4422	1.1493723e-06
252	0x3598132d	1.1330463e-06
253	0x3597a7f5	1.1299259e-06
254	0x3598029c	1.1325642e-06
255	0x359dd43e	1.1759182e-06

exp_avg f4 [64]
0	0xba2e7e73	-0.00066564156
1	0xb921188b	-0.000153633
2	0xb9840d8e	-0.000251871
3	0x394f025a	0.00019741934
4	0xb929d170	-0.00016195117
5	0x3a06022d	0.00051120186
6	0x394b5fa3	0.00019395216
7	0xb63f0501	-2.846413e-06
8	0xb9e32082	-0.00043321034
9	0xb7c09bd6	-2.296075e-05
10	0xb9830038	-0.0002498643
11	0xba9aaa47	-0.0011800014
12	0xb902f353	-0.00012488411
13	0xba3f4c2d	-0.0007297423
14	0xb9980fdb	-0.00029003512
15	0xba38af4c	-0.0007045164
16	0xb9083862	-0.00012990975
17	0x392c6a35	0.00016442763
18	0x3a7e9673	0.000971175
19	0xb9786c66	-0.00023691505
20	0xba1dcc30	-0.0006019501
21	0x388e7424	6.7927205e-05
22	0x39add490	0.00033155503
23	0x394f9408	0.00019796204
24	0x39f3a5fa	0.00046472234
25	0xb844e340	-4.6941685e-05
26	0xb9da8050	-0.000416758
27	0xb912f576	-0.00014015086
28	0x394e114d	0.00019652136
29	0xb94a7b9c	-0.00019310269
30	0xb9c518b7	-0.00037593182
31	0xb9c939fd	-0.00038380912
32	0xba1f0d4d	-0.00060673506
33	0xb8ce4ee5	-9.837541e-05
34	0xb9650fd2	-0.00021845035
35	0xb8cdf087	-9.8199635e-05
36	0x39e26be9	0.00043186478
37	0xb755e8b6	-1.2749972e-05
38	0x3a4b7d5f	0.0007762517
39	0x39a18870	0.00030809967
40	0x3902a060	0.0001245751
41	0x38c77bf0	9.5121446e-05
42	0xb82be283	-4.0980533e-05
43	0x39e55db6	0.00043748104
44	0x3a5462da	0.0008101888
45	0xb9bd2641	-0.0003607739
46	0x39a92495	0.00032261448
47	0xb8ae19c4	-8.301766e-05
48	0x39ab68f5	0.0003269386
49	0x3a261898	0.0006336062
50	0x39a85df0	0.00032113446
51	0xb9cb3d26	-0.00038764736
52	0x3a02dbd0	0.0004991861
53	0xba6345d3	-0.00086697674
54	0x382cb07a	4.1172352e-05
55	0x38f549ba	0.00011696243
56	0x39812b57	0.00024637088
57	0x3880b697	6.1375256e-05
58	0xb8b3882c	-8.560749e-05
59	0x3989fb36	0.00026317843
60	0xba4d1f35	-0.00078247796
61	0xba2878f7	-0.00064267166
62	0xb80e8692	-3.3980767e-05
63	0x38853c28	6.353139e-05

exp_avg_sq f4 [64]
0	0x36d34988	6.29685e-06
1	0x35c6691c	1.478274e-06
2	0x36a0daf0	4.7938593e-06
3	0x369dcb6f	4.7026474e-06
4	0x36a06303	4.779898e-06
5	0x36690cb0	3.472709e-06
6	0x36a05313	4.7780427e-06
7	0x361fab93	2.3792716e-06
8	0x367b3033	3.742997e-06
9	0x369ad4e6	4.6143423e-06
10	0x367568e6	3.6568904e-06
11	0x368cb1f0	4.19304e-06
12	0x363948b4	2.7609467e-06
13	0x36669c81	3.4363768e-06
14	0x36a9a061	5.055263e-06
15	0x36a505ce	4.918059e-06
16	0x366c7044	3.5232088e-06
17	0x36334a12	2.6716193e-06
18	0x36ed6947	7.0754063e-06
19	0x3682db7e	3.899854e-06
20	0x368b9ae1	4.160553e-06
21	0x3685f8f4	3.992691e-06
22	0x367a3a22	3.728674e-06
23	0x3662f2f0	3.3818033e-06
24	0x369b499e	4.62793e-06
25	0x368de799	4.229089e-06
26	0x3627d7ad	2.501048e-06
27	0x364e6c0a	3.075928e-06
28	0x368f2ae8	4.266727e-06
29	0x364ca70f	3.049561e-06
30	0x368437b4	3.9403913e-06
31	0x365fb250	3.333338e-06
32	0x362e3e3d	2.5964248e-06
33	0x3651e51b	3.1276784e-06
34	0x365c3ebb	3.2819069e-06
35	0x3630f1c3	2.6366768e-06
36	0x3655fcde	3.1886661e-06
37	0x3688fbfe	4.0824516e-06
38	0x36bd6c34	5.6452354e-06
39	0x368ecbfa	4.255676e-06
40	0x361583e4	2.22795e-06
41	0x3663153d	3.3837998e-06
42	0x362dba6f	2.5887527e-06
43	0x368480e2	3.9489105e-06
44	0x366dfe81	3.5463893e-06
45	0x36773cdf	3.68413e-06
46	0x35b9ac7d	1.3833775e-06
47	0x368db17f	4.2227907e-06
48	0x36e4f3dd	6.823319e-06
49	0x3695d3cb	4.465202e-06
50	0x366b4c39	3.5062096e-06
51	0x3680be55	3.836855e-06
52	0x365d5d1b	3.298576e-06
53	0x36a95062	5.0459503e-06
54	0x365c7ce7	3.2855257e-06
55	0x367c698f	3.761237e-06
56	0x36505480	3.10436e-06
57	0x36a5ecd3	4.944953e-06
58	0x3643abca	2.9157259e-06
59	0x3694a6cf	4.430163e-06
60	0x36991a18	4.562793e-06
61	0x368362cd	3.915606e-06
62	0x364ab88b	3.0207764e-06
63	0x368d98ce	4.2199163e-06

exp_avg f4 [64, 64]
0	0xb95b04b5	-0.00020887221
1	0xba7e3a1c	-0.000969799
2	0x371f976d	9.512395e-06
3	0xb9e831f8	-0.00044287718
4	0xb9f45e7f	-0.00046609712
5	0xba23059e	-0.00062187936
6	0xba3d03d6	-0.00072103494
7	0xba2df84a	-0.0006636424
8	0xb99a2e0c	-0.00029407477
9	0xbacf4b08	-0.0015815208
10	0xba4dbb86	-0.00078480726
11	0xb8a7cc2f	-8.001213e-05
12	0x39c704e3	0.0003795988
13	0xb88e4657	-6.7841895e-05
14	0x39c348db	0.0003724758
15	0xba604894	-0.0008555737
16	0xba3ee4ab	-0.0007281999
17	0xbaea3eb1	-0.0017871467
18	0xbaa1520a	-0.0012307775
19	0x391c654e	0.00014915058
20	0xbab40c70	-0.0013736617
21	0xb53396b9	-6.6902027e-07
22	0xba67b5d1	-0.00088390434
23	0xba7a0d82	-0.0009538756
24	0xb920f8fd	-0.00015351544
25	0x384281ea	4.6374196e-05
26	0x3a5e041f	0.0008469242
27	0xba3418fe	-0.0006870179
28	0x38f37fe7	0.000116109666
29	0xba07cd9f	-0.0005180481
30	0xba7b101f	-0.00095772924
31	0xb9eec80a	-0.00045543938
32	0xba308914	-0.00067342934
33	0xba9f3c79	-0.001214876
34	0x38cc1528	9.731419e-05
35	0x3a789522	0.0009482672
36	0x392f7c12	0.0001673552
37	0xba0c1b7b	-0.0005344671
38	0xb8b84893	-8.787322e-05
39	0xb9479bd2	-0.00019036166
40	0xbaccb2f0	-0.0015617292
41	0x3900d13f	0.00012284981
42	0xb82394e3	-3.900089e-05
43	0xb9703e18	-0.00022911315
44	0xbb153545	-0.0022767347
45	0xb84e3c8f	-4.9170627e-05
46	0xba3b5038	-0.00071454374
47	0x3a5f2779	0.0008512657
48	0xb9818c50	-0.00024709338
49	0xb8bc57d2	-8.9808964e-05
50	0xbad35317	-0.0016122785
51	0xba3ed275	-0.00072792853
52	0xb8046624	-3.156638e-05
53	0x3a4d5b08	0.0007833694
54	0xba5163d4	-0.0007987593
55	0xbaa52d3c	-0.0012601982
56	0x3a33ba8d	0.00068561063
57	0xba6b6ff2	-0.000898122
58	0x397130c3	0.00023001716
59	0x39c9a3f3	0.0003845986
60	0x39fe6fec	0.00048530044
61	0xba7e7677	-0.00097069837
62	0xb8c93f63	-9.5962336e-05
63	0xba13f910	-0.0005644718
64	0x39850793	0.0002537338
65	0x3a085d30	0.00052018743
66	0xb9baf8a2	-0.0003566193
67	0xba41e36e	-0.00073962554
68	0xb9768803	-0.00023511056
69	0xba1994d7	-0.00058586657
70	0x3a555222	0.0008137544
71	0xba304918	-0.0006724759
72	0x39736c07	0.00023214529
73	0x3b14efed	0.0022726015
74	0x39941c29	0.0002824974
75	0xb9b36c53	-0.00034222248
76	0x3a5568be	0.0008140913
77	0xbad6594d	-0.0016353518
78	0x3953520b	0.00020153091
79	0x3a3ce297	0.00072053954
80	0xbaa6b51a	-0.0012718767
81	0x3ac38336	0.0014916423
82	0x3aaf4e78	0.0013374826
83	0x3ad57888	0.0016286531
84	0x3a08bbdd	0.0005215982
85	0x3a732a8f	0.0009276056
86	0xba90eff3	-0.0011057839
87	0x399eeba0	0.00030311663
88	0x3a86610e	0.0010252313
89	0xb91dd2a5	-0.00015051158
90	0x38fc117e	0.000120195546
91	0x3a42135f	0.0007403399
92	0x3a4d8802	0.0007840396
93	0xb9e8b2ed	-0.00044383798
94	0xb9a0f361	-0.0003069891
95	0xba752ab3	-0.0009352371
96	0x3ab96ecb	0.0014147399
97	0x385f5be2	5.3252916e-05
98	0x39d13d80	0.00039909407
99	0x38db6396	0.00010461283
100	0xb9b431b7	-0.00034369316
101	0x3a1872d5	0.0005815451
102	0xba07eec8	-0.00051854225
103	0xb97f23bd	-0.00024332009
104	0x39d2c6a8	0.00040202332
105	0xbace1336	-0.0015722278
106	0x3a8ff19f	0.0010982043
107	0xb90e12c9	-0.00013549173
108	0x3ab2db1a	0.001364562
109	0x3ab846bb	0.0014059165
110	0xbaa2c757	-0.0012419027
111	0x39b2a26d	0.00034071822
112	0x3a58fd4b	0.00082774897
113	0xb99c33ac	-0.00029793137
114	0x3a92fc69	0.001121414
115	0x3a77a395	0.0009446678
116	0xb9e200a9	-0.0004310657
117	0x39b54411	0.00034573724
118	0x385c2177	5.2483254e-05
119	0x385c9341	5.258923e-05
120	0x3a962cac	0.0011457405
121	0xba7e4bf1	-0.0009700647
122	0xbb426471	-0.0029661919
123	0xba9efdff	-0.001213014
124	0xba1a3898	-0.0005883067
125	0xb9fcf129	-0.00048244864
126	0x39562f6e	0.000204263
127	0xba4a19ff	-0.0007709562
128	0xb67f55bd	-3.8047867e-06
129	0x3a4a3f9f	0.0007715169
130	0x3a394775	0.0007067838
131	0x3a8757b7	0.0010325824
132	0x389a2ede	7.352022e-05
133	0x39d57c46	0.00040719117
134	0xb979db1c	-0.00023828115
135	0x3958981b	0.00020656029
136	0xb949f850	-0.00019261357
137	0x3a3037be	0.00067221734
138	0xba28eb89	-0.0006443789
139	0x3a4bcb76	0.00077741535
140	0x3a9dd1b9	0.0012040652
141	0xb93647c1	-0.00017383603
142	0x3a0dac91	0.00054044375
143	0x367e7d2c	3.792181e-06
144	0x39ffd85a	0.00048798585
145	0xba024adb	-0.0004970261
146	0xb95f620a	-0.0002130346
147	0x3a783a6b	0.0009469154
148	0x39162e52	0.0001432237
149	0x3a1e34eb	0.0006035107
150	0xb974d82e	-0.00023350187
151	0xb607282e	-2.0139955e-06
152	0x39c3f0d4	0.0003737273
153	0x3a00a252	0.0004907
154	0x3a917dc7	0.0011100107
155	0xb7f28569	-2.8910772e-05
156	0x39c34fe4	0.00037252821
157	0xb8e13ea0	-0.00010740501
158	0xb9da4966	-0.00041634886
159	0xba1368ce	-0.0005623222
160	0x3ab41dc7	0.0013741784
161	0x3a7d974a	0.0009673728
162	0x3940b7d0	0.00018379022
163	0x3a6c751e	0.00090201374
164	0x396222cd	0.00021566004
165	0x3a10353e	0.0005501098
166	0x39af3e85	0.00033425182
167	0x39e2c19e	0.00043250335
168	0xba1d1ac2	-0.0005993062
169	0x3a0271e8	0.000497608
170	0x3a97f64e	0.001159379
171	0x3980367d	0.0002445466
172	0xba9adb05	-0.001181454
173	0x3ad0bc25	0.0015925212
174	0xb8b4568c	-8.5991895e-05
175	0x3a65fdb6	0.00087734626
176	0x3a7b68aa	0.00095904863
177	0xb75492b3	-1.2670341e-05
178	0xba0ab037	-0.000529054
179	0x3ae17a4d	0.0017202586
180	0xb829eeac	-4.051502e-05
181	0x3aaa61fd	0.0012999173
182	0x3a00851f	0.0004902649
183	0x39161ca9	0.00014315791
184	0x3ab061be	0.0013456864
185	0xba564653	-0.0008173931
186	0x3a3849c9	0.0007030038
187	0xb8f9e871	-0.00011916541
188	0x3a6d486d	0.0009051625
189	0xb9b8efa7	-0.0003527377
190	0x3a9686dd	0.0011484284
191	0xb993aae5	-0.0002816535
192	0xb953b4a4	-0.00020189822
193	0xb93f478f	-0.00018241837
194	0xb998b472	-0.0002912614
195	0xb9c367a9	-0.0003727053
196	0xb9f6ada0	-0.00047050137
197	0x38c30d7b	9.3008355e-05
198	0x39900c89	0.0002747516
199	0x39f79540	0.0004722271
200	0x3a226596	0.0006194947
201	0x3ac20cf9	0.0014804892
202	0xb91371e5	-0.00014061441
203	0xba6a9fa9	-0.0008950183
204	0x3a203979	0.000611208
205	0xbac4741f	-0.001498822
206	0xb92f545a	-0.00016720724
207	0x3841e5a8	4.622867e-05
208	0xba54e785	-0.00081216573
209	0x3a537c09	0.0008067494
210	0x3aca7575	0.0015446382
211	0x39000f45	0.0001221272
212	0x39dd8316	0.0004225007
213	0xb8d2e5f7	-0.000100564146
214	0x3a794624	0.0009509048
215	0xb86748d1	-5.5142507e-05
216	0x3a826de9	0.0009950969
217	0x367d554d	3.774959e-06
218	0x39036d8e	0.00012533946
219	0x3a6479a2	0.00087156345
220	0x3a7b1b5e	0.0009578968
221	0xba3b9a97	-0.00071565196
222	0xba143580	-0.0005653724
223	0xbaa6b925	-0.0012719972
224	0xb9c652c4	-0.00037827168
225	0x3ac957df	0.0015361271
226	0xb85e782c	-5.3040843e-05
227	0xb6488c44	-2.9883968e-06
228	0x3a041cbc	0.0005039682
229	0x38cdd0d4	9.814059e-05
230	0xb965d499	-0.0002191834
231	0x3a658806	0.0008755926
232	0xba638102	-0.00086785865
233	0x3a8232ea	0.0009933386
234	0x395307e9	0.00020125475
235	0x39b9bd43	0.0003542696
236	0x3a0e414c	0.00054266
237	0x3a65bd1c	0.0008763836
238	0x3aaa0de9	0.0012974116
239	0x38992627	7.302715e-05
240	0xba28fe0a	-0.0006446546
241	0xb9543a51	-0.0002023962
242	0x39deec31	0.00042519116
243	0x3a0f8ff3	0.0005476467
244	0x38f026f6	0.00011451349
245	0x3ab38a2b	0.0013697793
246	0xb9b19b25	-0.00033875662
247	0xb91356d1	-0.00014051354
248	0x39a453a8	0.00031342846
249	0xb9141ed4	-0.00014125864
250	0xb9c513bd	-0.00037589474
251	0x39a52b9d	0.00031503747
252	0xba2b61df	-0.0006537716
253	0xba64d48f	-0.00087291835
254	0xb97aa07b	-0.00023901642
255	0x39aa46c4	0.0003247765
