logs/lightning_logs/version_0/checkpoints/epoch=2-step=645.ckpt (torch, 668716 bytes, 18 tensors)

model.1.weight f4 [64, 784]
000000 10 30 9e 3c 8a 65 73 bc a6 20 c5 bb a8 c2 90 3c
       0.019310027 -0.014855752 -0.006015855 0.017670944
000010 1a 00 06 bd 88 e5 b6 3c f8 02 d3 bb c7 47 9c 3c
       -0.03271494 0.022326246 -0.006439563 0.019077195
000020 87 6f c0 3b f9 18 63 bb 34 2b 31 3c ec f4 2e 3b
       0.00587267 -0.0034652336 0.010813523 0.0026696278
000030 a4 b6 60 3c 1d 30 5d bc 46 17 da ba 6e 22 17 bb
       0.01371542 -0.013500241 -0.0016639016 -0.0023061293
000040 38 5f c7 3b 9c 91 48 3a af 98 03 3d b0 f6 44 3c
       0.006084349 0.0007651092 0.032128032 0.0120217055
000050 bf 09 4b bc f0 43 a9 bc 9f 69 a6 bb eb 85 6d bc
       -0.01239246 -0.020662278 -0.005078509 -0.014497261
000060 ab a2 2c bc fb 8f 2b 3b ae d8 b5 3c b3 75 a6 3c
       -0.01053683 0.0026178348 0.022198047 0.020319795
000070 8a 48 0b bd b8 ce bc 3c 3d 57 32 3c 7e 7a 0e 3d
       -0.034004726 0.02304779 0.010885057 0.034784786
000080 79 88 c8 3c ff af 01 bd 26 ce 0c bd af 2f 9f bc
       0.024479138 -0.031661984 -0.034376286 -0.019431917
000090 cd d9 e2 3c d8 46 05 bc a9 12 34 3c 91 4e b7 bc
       0.027691746 -0.008134566 0.010990777 -0.02237633
0000a0 83 5b ee 3c 47 57 aa bc 28 44 c7 3c 15 a2 85 ba
       0.02909637 -0.02079357 0.024324492 -0.0010195399
0000b0 fc 5e 9d bc 79 be 8d 3c d1 8c a8 bc ae 27 13 3c
       -0.019210331 0.017302739 -0.020574959 0.008981628
0000c0 23 a9 35 bc 7a c9 9f bb 01 a2 10 bd 5a 52 88 bc
       -0.011087689 -0.004876313 -0.03531075 -0.01664083
0000d0 17 32 a6 3c 59 b9 fe bb 17 6d 15 3d 56 f5 f1 3c
       0.020287557 -0.00777356 0.03648099 0.02953593
0000e0 f2 67 48 ba 9c d9 bb bc f6 99 b9 3c a0 f1 41 3c
       -0.00076448836 -0.022930913 0.022656422 0.011837393
0000f0 9e 43 b7 bc ae 51 c4 3c 96 aa a5 3c bf c6 c8 3c
       -0.02237111 0.02396473 0.020222943 0.024508832
000100 ac 3d fd bc 19 b7 a1 bc 2e 05 d0 bc ff 1c d1 bc
       -0.030913197 -0.019740628 -0.025393095 -0.025526522
000110 0a 4c 80 bd 3d c7 69 bd b3 81 a4 bb 62 99 c1 bc
       -0.06264503 -0.057074774 -0.005020344 -0.023632709
000120 c6 18 9e 3b e2 da e3 bb 80 45 29 ba ea 82 83 bb
       0.0048247306 -0.006953583 -0.00064571947 -0.004013409
000130 e7 2a 12 3b 2b 1a e6 3b 89 55 26 bd 74 41 7c 3c
       0.0022303404 0.0070221624 -0.040608916 0.015396465
000140 18 d4 d0 bc 27 15 d8 bc 26 d5 49 3b f2 ad a9 bb
       -0.02549176 -0.026377274 0.0030797212 -0.0051782066
000150 4c 45 b3 3c 89 00 a2 bc 29 a7 fc bc 63 62 d8 3c
       0.02188363 -0.019775646 -0.030841427 0.026414102
000160 96 b9 97 bb d5 91 a4 3c 82 50 05 3c af 5f 15 bd
       -0.004630278 0.02008907 0.00813687 -0.036468204
000170 b6 65 3c bc 96 c2 9f bc 43 63 7e bd 09 97 83 bd
       -0.011498859 -0.019501965 -0.062106382 -0.06425292
000180 c7 96 0b bd 90 54 0d bd ea aa 36 bd 21 fc 02 bd
       -0.03407934 -0.034504473 -0.04459659 -0.03197873
000190 9d 7a 95 3c 4d 98 85 bc 52 64 30 3c ac b1 8c 3b
       0.018246943 -0.016307974 0.010766106 0.004293641
0001a0 fa 51 15 bd 77 69 41 bd f4 8d ab 3c 76 7e c2 bb
       -0.036455132 -0.04721972 0.020941712 -0.0059354855
0001b0 37 d5 b0 3c 67 5f 05 3c 16 c8 4b 3c a8 f9 e1 3c
       0.021586044 0.0081404215 0.012437841 0.027584866
0001c0 ba 6d 0e 3d 7c b9 ba bc 61 0e ad 3b 62 96 de 3c
       0.034772612 -0.022793524 0.005281255 0.027171317
0001d0 4e e0 db 3c bf 84 b4 3c 70 57 f2 bc 55 6f 0f bd
       0.026840355 0.022035955 -0.02958271 -0.035018284
0001e0 f0 74 23 bd c9 89 a0 bc 0f b8 98 3a 51 6c 71 bd
       -0.039906442 -0.019596951 0.0011651533 -0.05894119
0001f0 6a 46 82 bc 70 ab 3e bd ea 3e 64 bd d0 3c 00 bd
       -0.015902717 -0.046550214 -0.055724062 -0.031307995
000200 d1 44 f0 3b 25 27 d9 3c 40 b1 a4 bc fc 2a 63 3c
       0.0073324223 0.026507923 -0.02010405 0.013865229
000210 de 78 0a 3d 9c 42 cc 3c f9 04 c9 3c 76 ea 0f 3d
       0.033806674 0.024934106 0.024538504 0.03513571
000220 a4 6c ef 3c 71 35 23 3c dd ad c9 bc 2e 6f f1 bc
       0.029226609 0.009961472 -0.024619037 -0.02947196
000230 74 40 7d bc e1 0e 55 bb 05 d8 ac bc c8 ed 62 3c
       -0.015457261 -0.003251009 -0.0210991 0.013850637
000240 90 bd 7a 3c b3 2d 0a 3a df 9d bb 3c 2d ea 8d 3c
       0.015303984 0.0005271092 0.022902427 0.017323578
000250 f3 47 90 3c 44 53 c5 3c 72 21 b1 bc 65 87 70 3c
       0.017612433 0.024087556 -0.021622393 0.014680718
000260 24 57 b2 bc 04 46 6c bc 9c 7f 25 bd 03 fe e7 bc
       -0.021770068 -0.01442099 -0.0404049 -0.028319364
000270 94 be 40 bc ff 29 1d 3c 13 9c 76 3d 91 da bd 3c
       -0.011764187 0.009592532 0.060207438 0.02317551
000280 63 aa 27 3b 5d 2d 35 3d 34 9a 46 3d 22 bd 80 3d
       0.0025583736 0.044232715 0.048486903 0.06286074
000290 4a 72 05 3c 4c 0f 68 3c 7b 7b 49 bc f1 77 ec bb
       0.008144924 0.014163803 -0.012297506 -0.0072164466
0002a0 15 b8 e1 bc 05 d4 7b bc f3 0f 2a bc 99 44 80 3c
       -0.027553597 -0.015370374 -0.010379779 0.01565771
0002b0 d3 f8 76 3c b8 9c c4 3c 7a 17 55 3d 38 d4 50 3d
       0.015073973 0.02400051 0.052024342 0.050983638
0002c0 9f f9 f3 3c a3 42 35 3b c3 92 08 bd ac 41 d4 3b
       0.029782115 0.0027658127 -0.033343088 0.0064775553
0002d0 24 72 24 bd 2a 44 4f bd ba 77 c5 bd dd 1b a2 bd
       -0.040147915 -0.050602116 -0.09641977 -0.07915471
0002e0 0d c2 b7 bd 73 71 80 bc 33 b6 3d bd e1 94 a7 bc
       -0.08972559 -0.015679097 -0.046316337 -0.020456733
0002f0 3f ce 69 3c 6a b8 4a 3c 41 5d 7c 3d 19 7a 1a 3d
       0.014270364 0.012373069 0.06161237 0.037714098
000300 14 53 ce 3c f2 9e 97 3c e1 8d fd 3c 50 4f c2 bc
       0.0251861 0.018508408 0.030951442 -0.02371946
000310 ac c7 90 3c fc b9 c2 3c f9 42 11 3d c3 73 cb bc
       0.017673336 0.023770325 0.03546426 -0.024835473
000320 a4 ff 76 3c f1 42 1f bc a1 64 39 3d 61 77 5c ba
       0.015075598 -0.00972055 0.045261983 -0.0008410123
000330 e8 c3 a3 3c 1d da 22 bc 41 2b ab bc ff 5c 12 bd
       0.019990876 -0.009939698 -0.020894649 -0.03573322
000340 49 5c 46 bd d7 dd 4a bd 2f 0e 9e bd 63 4a a4 bd
       -0.048427854 -0.04952797 -0.07717549 -0.08022001
000350 78 f1 ef bd b9 dc 28 bd bd 86 08 bc 02 e3 8c 3c
       -0.117159784 -0.041226123 -0.008332905 0.01719809
000360 18 d4 fd 3c a7 f6 c9 3b 8c 88 0a 3d 41 96 a7 3d
       0.030984923 0.0061634365 0.033821627 0.081829555
000370 1c a2 61 3c e6 8a 60 3d 8f f5 aa bc 66 9a c4 bc
       0.01377156 0.054819964 -0.020869045 -0.023999404
000380 82 b5 95 3c 26 33 cc bc e3 be 09 bc 9d de b0 3c
       0.018275026 -0.024926733 -0.008407327 0.021590525
000390 4f e2 02 3d 91 10 33 3d 00 17 d1 bb e5 18 ec bc
       0.031954106 0.04371697 -0.0063809156 -0.028820464
0003a0 c9 9f b4 3c 85 95 9f bc 8f 28 1a bd 49 34 e9 bc
       0.022048848 -0.019480476 -0.037636336 -0.028467314
0003b0 59 33 98 bd ef 6f 19 bd 2e 65 79 bd ef 49 f2 bd
       -0.07431669 -0.037460264 -0.060887508 -0.11830508
0003c0 9e 8d cc bd d2 b2 10 bd a8 d7 59 3c b4 a1 aa 3b
       -0.09987949 -0.035326786 0.013296045 0.005207265
0003d0 ed b5 37 bb 27 4d fd 3c 98 bc d8 3b 21 09 a6 3c
       -0.002803202 0.030920578 0.006614279 0.020268025
0003e0 ff db 3b 3c 15 a7 54 3d e3 3e 0d 3d f8 1f 3e bc
       0.011466025 0.051917154 0.0344838 -0.011604302
0003f0 11 25 23 3b 72 fd 87 3c a9 47 85 3b 41 c7 bd bc
       0.002489392 0.016600344 0.0040673804 -0.0231663

model.1.bias f4 [64]
000000 c8 fb 87 bc 24 ed 25 3d 8c fd d0 3a d9 52 3e 3c
       -0.01659955 0.040509358 0.0015944703 0.011616432
000010 40 3d c2 bc 1f c8 b4 bb 8b c3 00 bc 30 17 c1 3c
       -0.023710847 -0.0055170204 -0.007859121 0.023570627
000020 62 25 43 3d e1 9d 6e bb 58 15 17 3d e4 0b 1a 3d
       0.047643073 -0.003641002 0.03688559 0.037608996
000030 8e a0 54 bc 54 39 1a bc f4 a2 b6 bc f7 fa 12 bd
       -0.012977732 -0.009413082 -0.022294499 -0.03588387
000040 67 d6 72 3a b9 da 73 3c 36 61 ed bc 04 2c ac bb
       0.0009263516 0.0148836905 -0.028977018 -0.0052542705
000050 ca ac 61 3b 01 8c 82 3c 5b 10 f2 3c a4 76 f1 bc
       0.0034435266 0.0159359 0.029548815 -0.029475518
000060 42 6a 1d 3d bb eb 29 bc 7a a7 f0 3a 9f 87 82 bc
       0.038431413 -0.010371144 0.0018360459 -0.01593381
000070 c0 4e 00 3d 90 e6 ed 3c 67 be 2a 3d cb ee 2d 3d
       0.0313251 0.029040605 0.041685488 0.04246406
000080 52 da 7d 3c 1d 01 88 bb af 55 b6 3b a9 b9 88 bb
       0.015493946 -0.0041505233 0.0055644135 -0.004172523
000090 83 5c d6 bc 6a 0a 56 3b c1 88 9e bb 05 49 46 bc
       -0.02616716 0.0032660016 -0.0048380797 -0.01210237
0000a0 1f f1 97 bc 0b 6a 08 3d c4 1c 15 bc 86 0c 9d bc
       -0.018547593 0.033304255 -0.009101097 -0.01917101
0000b0 63 04 d7 bc 22 10 b7 3c 9f c8 17 b9 c6 c6 91 3b
       -0.026247209 0.02234656 -0.0001447522 0.0044487445
0000c0 5e 0f 20 3c b4 14 31 3d 99 62 e2 bb 3e af 0e 3d
       0.009769289 0.043232635 -0.0069087264 0.034835093
0000d0 1b 10 80 bc 54 07 f3 3c b0 b2 d6 3c 8f 57 0f 3b
       -0.01563268 0.02966658 0.026208252 0.0021872257
0000e0 48 47 8c bb 6b b4 d6 bb 31 7d 23 3d cc 2f cb bc
       -0.0042809583 -0.006552269 0.039914314 -0.024803065
0000f0 cb 4a b7 3c bd 02 9f bc 7d 7e 1b 3d af 58 8b 3c
       0.022374531 -0.019410485 0.037962426 0.017010061

model.4.weight f4 [64, 64]
000000 7f 11 0f be 8d 44 cb 3d 26 e5 07 3e 44 06 07 be
       -0.13971518 0.099251844 0.13271007 -0.13185984
000010 a0 6c 77 bd 86 8a ce 3d a4 0b b4 3d b7 f9 5a 3d
       -0.060406327 0.10085015 0.08791283 0.053460803
000020 41 17 e6 3d 7e 38 78 3d 77 bc d5 3d ab ca 98 bc
       0.11234904 0.06060075 0.104363374 -0.018651327
000030 f7 7a 41 bd ca 37 4c bd 46 36 32 3d d5 88 43 3e
       -0.04723641 -0.049857892 0.04350879 0.19095166
000040 06 71 91 3d 1e 47 8a 3d d4 fa b0 bd f6 e6 94 bb
       0.07101636 0.06751846 -0.08641592 -0.0045441343
000050 63 41 cf 3d 60 03 9f ba ff 5e 83 bd 74 66 20 bc
       0.101198934 -0.0012131743 -0.064146034 -0.009790052
000060 1e dc cf 3c 61 16 d9 bc 9b 57 71 3d 68 ec b6 bb
       0.025373515 -0.026499929 0.058921438 -0.005582381
000070 61 6c 77 3c 01 6f e6 bd 08 86 10 3e b9 80 6b bd
       0.015101523 -0.11251641 0.14113629 -0.057495806
000080 ed a3 d0 3d bc 5c 5b bd ab 6d c7 bd 9f 06 ed 3d
       0.10187516 -0.053555235 -0.097377144 0.115735285
000090 6f b3 65 3d 8d d3 19 3e fc 60 38 3d 6a ff c0 bd
       0.056079324 0.15022106 0.045014367 -0.09423716
0000a0 4b 46 0d 3d b3 11 d2 bd 3c f8 32 bd 1c 8b fd bc
       0.034490865 -0.10257282 -0.043693766 -0.030950122
0000b0 dd d0 93 bd ee 76 f7 3d 1e ee 71 bc b3 e2 8b bd
       -0.07217572 0.12083231 -0.014766244 -0.06830349
0000c0 4e 31 8b bd f1 e0 32 bc 57 d2 2c bd 56 b8 05 3e
       -0.067965135 -0.010917888 -0.042192783 0.130586
0000d0 f5 02 90 3b ea bc d4 ba 2d 28 04 3d c2 8e b1 3c
       0.0043948838 -0.0016230617 0.032264877 0.021674518
0000e0 11 0d f1 bb 82 24 dd bd 15 44 02 be 9a 8d ad bd
       -0.007356294 -0.10797979 -0.12721284 -0.08474274
0000f0 22 6a 23 be f3 cc 96 3d 78 fe 7c 3d eb 36 cc 3d
       -0.15958455 0.0736331 0.061766118 0.09971412
000100 c2 33 cf 3d 6c 2f c6 3d 83 a9 25 3d b5 d3 2d 3e
       0.10117294 0.09677014 0.040444862 0.16975291
000110 fe d1 30 bb 53 4d 6e 3d 1d 9f 25 3d 18 cb cd bd
       -0.0026980634 0.05817921 0.040434945 -0.10048503
000120 f5 6b dc 3d 8a f6 56 3c ff 6e 14 3e 4b b7 fc 3c
       0.10762779 0.013120303 0.14495467 0.03084912
000130 28 c3 b5 bd c2 14 0f 3e 3a d7 f2 3d 9f 4f 72 bd
       -0.08875114 0.13972762 0.118574575 -0.059157964
000140 95 6b 9c 3d cd e9 d3 bd ec af 9b bd 5c fd 93 bc
       0.07637707 -0.10347328 -0.07601914 -0.018065147
000150 d2 9e 48 bc 56 ea 47 bc 66 c9 d9 bc 3d a9 6b bd
       -0.012244897 -0.012201866 -0.026585292 -0.057534445
000160 31 b2 02 3e 53 c3 a1 bd fb 03 0e be 85 7d f3 3d
       0.12763287 -0.07898583 -0.13868706 0.11889175
000170 aa 1a c6 3c 1d 2d 67 3d 8b 5f 9a 3d f9 ba df 3d
       0.024182636 0.056439508 0.075377546 0.10924334
000180 e3 fe ae bd 3f 81 70 bd 71 15 36 be c3 d0 d2 bd
       -0.085447095 -0.05871701 -0.17781617 -0.102937244
000190 01 ab df bd 64 f7 a9 bd 9d 58 a7 3d 9d dc 78 bd
       -0.10921288 -0.08299139 0.081711985 -0.06075727
0001a0 26 4e d8 3b 58 0a 94 3d 25 db 19 bd d7 bd d8 bd
       0.006601113 0.072285354 -0.037562508 -0.10583084
0001b0 12 2f 04 bd b3 e5 51 bc 23 eb a4 3d 57 ed 64 bc
       -0.032271452 -0.012811112 0.08052661 -0.013972602
0001c0 10 eb 04 3e 5c 51 01 be 14 ec 0b 3e 58 a7 60 bd
       0.12980294 -0.12628692 0.13664275 -0.05484709
0001d0 88 e7 bb bd e2 65 4d bc 9e 8c ce 3d 0b 9a c0 3d
       -0.091750205 -0.012536498 0.10085414 0.09404381
0001e0 9a d4 2f bc c3 e8 d3 3d 60 1a 9c 3d 38 fb 1e 3d
       -0.0107318405 0.1034713 0.07622218 0.0388138
0001f0 f7 a1 91 bd a2 ee 8a bd c7 25 e3 3c ab 24 f1 3d
       -0.071109705 -0.06783797 0.027727975 0.11774572
000200 06 26 95 3c f0 ae fe 3c a9 45 67 bd 6b c2 cf 3b
       0.018206608 0.031089276 -0.056462917 0.006340315
000210 0f d3 02 3d 4d 27 f2 3d 22 fe 7f 3c 8b 41 a1 bd
       0.031939562 0.11823902 0.015624555 -0.078738295
000220 59 d2 ef 3d be 0a a3 3d 68 a2 d1 bc 0c bc 5a 3b
       0.117100425 0.07961033 -0.025590137 0.0033376245
000230 20 77 99 3d 7a 3d d7 bc 4a 71 b0 3c 7d 85 5d 3d
       0.074934244 -0.026274431 0.021538395 0.054082382
000240 b5 56 ca bd 85 ec 27 3d 19 93 aa bc 34 5e 17 3e
       -0.09879819 0.040997047 -0.020822095 0.1478203
000250 d7 0f 6f bd 36 aa ff 3d 02 70 f9 3d 36 29 1a be
       -0.058364715 0.12483637 0.12179567 -0.15054783
000260 f0 05 40 3c ed f0 c1 bd 96 af 13 bd cb f9 cd 3d
       0.011720166 -0.09469781 -0.036056124 0.1005741
000270 1c cf ab bd 3f 27 4a bd df 2b 07 3d 35 8c f4 3a
       -0.08389112 -0.049353834 0.033000823 0.0018657508
000280 2f a0 42 3d 72 ef d2 3d a0 71 5e bd f7 cb 77 bd
       0.047516044 0.10299577 -0.05430758 -0.06049725
000290 2b 4d 46 3b 8d 22 97 3d d2 8f 32 be f1 d7 90 3c
       0.0030258398 0.07379637 -0.17437676 0.017681094
0002a0 ac 2a 24 3e 1e 9e ac bd c7 1a 5b 3d 75 cb 8c bd
       0.16031903 -0.08428596 0.053492334 -0.06874744
0002b0 c6 40 2c 3e ac 58 a2 3d dc df e1 bc a0 a0 d4 3d
       0.16821584 0.07927069 -0.027572565 0.10382199
0002c0 3a 77 84 3d d8 32 8f 3d 0b 16 b3 3c 46 11 09 be
       0.06468053 0.069921196 0.021861097 -0.13385496
0002d0 a5 3c f6 bd 4c 6d d9 3c 4e 7d c4 bc 8d 40 31 3d
       -0.12023286 0.026541375 -0.023985531 0.04327445
0002e0 f4 8d 3e 3d d2 87 da 3c 6b 67 1a be d8 ac 17 3d
       0.046522096 0.026676092 -0.15078513 0.03703007
0002f0 a0 bf da bd cc d1 65 bd c8 01 12 3e 67 0c 84 bd
       -0.10681081 -0.05610828 0.14258492 -0.06447678
000300 dc 9e 21 be 10 9d 7b 3c 28 63 9c 3d c9 cf a4 bd
       -0.15783256 0.015357271 0.076361 -0.080474444
000310 ec a0 9d bd d1 c4 a5 bd 7c 70 b9 bd 38 0b 8e 3d
       -0.07696709 -0.080941804 -0.09054658 0.069357336
000320 be 0c 8d 3d 8c 3a 83 bd 5c ec 11 3e e4 ac 1e 3c
       0.06887196 -0.06407651 0.1425032 0.009684775
000330 80 ea 74 3d 75 04 98 3d f8 1e d6 bd c7 55 56 3d
       0.05979395 0.07422725 -0.104551256 0.052327897
000340 13 81 28 3d 48 c4 c8 3d 35 24 f2 bc df 4c 98 bd
       0.04113872 0.09803063 -0.02955828 -0.07436537
000350 d0 f7 57 bd 6b fc 80 3c a1 9f 51 3d 1d 00 09 3d
       -0.052726567 0.015745362 0.051177625 0.033447374
000360 24 9d 4a bd cc cc 9a bd 63 c2 5d 3c 86 c6 5f bd
       -0.049466267 -0.07558593 0.013535115 -0.054632686
000370 5f 7d 7b bd d1 83 a6 bd 7a 52 8b 3d d6 4b 85 bd
       -0.06139886 -0.08130611 0.068028405 -0.06508605
000380 c4 7e de 3c 0a 02 bf bd 52 68 27 3e 5f 38 cf 3d
       0.027160056 -0.09326561 0.16348389 0.10118174
000390 ac ed b2 3d 54 dd 0e bd 13 dd e0 bd 94 02 a9 3d
       0.087367386 -0.034879044 -0.109796666 0.08252445
0003a0 87 0f 97 bb c3 ad 86 3c a7 1a c1 3d e2 ff 45 3e
       -0.0046100053 0.016440278 0.09428912 0.19335893
0003b0 6d 3a 0d 3d dc ca 11 3e 90 4f 10 3d 83 14 15 bd
       0.034479547 0.14237541 0.035232127 -0.036396515
0003c0 48 fa 06 bd ff 22 5f 3d a0 e5 0f 3e c2 58 0f be
       -0.03295353 0.054476734 0.14052439 -0.13998702
0003d0 61 34 bd bc 3a e6 80 bb 9f 34 0d 3e 07 d1 88 3d
       -0.023096265 -0.003933695 0.13789605 0.06680494
0003e0 9a 21 50 bd 6e 3d af 3d 0e 5b f4 bb 55 0f 70 bd
       -0.050813295 0.08556639 -0.0074571436 -0.05860837
0003f0 99 de 44 3d 35 9d 37 3d d5 b0 e0 bd 7a 28 18 3e
       0.04806385 0.04482766 -0.10971228 0.1485919

model.4.bias f4 [64]
000000 88 9a 73 3d 4a 7b e0 3d a2 ec a5 3c 6b 44 36 3d
       0.059473544 0.109610155 0.020254437 0.044498842
000010 e4 0b 82 bc 6f 38 ff 3d 48 24 63 3c 27 19 e0 3c
       -0.01587481 0.12461936 0.013863631 0.027355744
000020 ea 3f 17 bc b7 e4 23 bd 58 87 b2 bd 24 28 13 3c
       -0.009231547 -0.04001304 -0.08717221 0.008981738
000030 cd 06 7b bc 8b 2f e8 3d 05 76 0b 3d bd a1 97 bd
       -0.015321446 0.11337193 0.0340481 -0.07403896
000040 42 aa 05 bc 81 0e b9 3b dc 50 85 bb 74 b6 c9 bd
       -0.008158268 0.005647481 -0.004068477 -0.09849253
000050 76 d9 b0 3c 5e 60 f4 bd 2c 5c cb 3d 26 73 0f bd
       0.021588068 -0.11932443 0.0992969 -0.035021923
000060 95 1c 08 3e 7e 53 9d 3d b0 b2 a7 3d a7 f2 fb 3d
       0.13292153 0.076819405 0.08188379 0.12302142
000070 41 69 97 bc 4a 31 b7 3d 3a a5 32 bc 84 05 6a 3d
       -0.018482806 0.08944948 -0.010903651 0.057134166
000080 bc cd bc ba bd 8a fc 3d 07 ee 10 3e 3f e8 d3 ba
       -0.0014404575 0.1233115 0.141533 -0.0016167237
000090 ee d4 72 3d ed 7d 9e bc 40 60 a4 3c 88 a7 28 3d
       0.059285097 -0.019347155 0.020065427 0.041175395
0000a0 03 2a c5 3c b7 86 0e ba 9d 8c 17 bd 15 30 e8 3d
       0.024067884 -0.0005436944 -0.036999334 0.11337296
0000b0 4d df dc 3d 56 38 84 bd be 7c 14 3e 14 cd a4 3d
       0.10784779 -0.06456058 0.1450071 0.08046928
0000c0 6b 39 cc 3d 42 1f 08 3e a8 ca fc 3b 54 0a 6f 3d
       0.09971889 0.13293174 0.007714588 0.05835946
0000d0 f4 9c ff 3c 63 09 c2 3d 16 8d 99 bd 93 fc ea 3d
       0.03120277 0.094744466 -0.07497613 0.11473956
0000e0 c2 2b a9 3d d9 38 82 bd 5e b2 45 bd 6a 7d 2a 3d
       0.08260299 -0.06358499 -0.048265807 0.04162351
0000f0 d4 a8 d2 bd 56 a9 b1 bd 25 d4 b0 3d 58 99 2b bd
       -0.10286108 -0.086748764 0.08634213 -0.041894287

model.7.weight f4 [10, 64]
000000 3e 54 bf bd c9 e4 2f be 46 6c 90 3b 77 cf 55 3d
       -0.0934224 -0.17177118 0.0044074384 0.052199807
000010 ed 33 dc 3d f2 b5 7d bc 39 26 93 3d a9 b0 51 3d
       0.107520916 -0.015485274 0.07185025 0.051193867
000020 5b 16 93 bd 47 ac fc bd e8 c1 26 be c2 f0 af 3d
       -0.07181998 -0.12337547 -0.16284907 0.08590843
000030 3c 34 96 bd 4b a4 08 3e 70 a7 c3 bd f7 7d 0d 3c
       -0.07334182 0.13343923 -0.095534205 0.008635989
000040 84 3e e3 bd 9c a3 81 bd 29 a4 20 be 81 f2 8a 3d
       -0.11095908 -0.06330034 -0.15687622 0.06784535
000050 7e 1b ac bb 7c b2 e3 3c 02 8e b4 bd 85 8b ea 3c
       -0.0052523008 0.027795069 -0.08816148 0.028630981
000060 3d 98 24 be c4 b0 0e bd 5e f7 a5 3c b0 14 a7 3b
       -0.160737 -0.034836546 0.020259555 0.0050989017
000070 6e 5d 02 be 1c 48 a8 3d ea 5b f3 3d 39 e3 c7 3d
       -0.12730953 0.08216879 0.118827656 0.09760136
000080 dd 71 77 bd 5c 84 29 be 5c b8 9d bd a7 9c 17 be
       -0.060411323 -0.16554397 -0.077011794 -0.14805852
000090 16 15 55 bd 1f ae b6 bd 86 44 2a be 8a a3 a0 bd
       -0.052022062 -0.0891993 -0.16627702 -0.078436926
0000a0 31 73 dd bd af 5b 9c 3d dc d6 17 be 10 d5 ad 3d
       -0.10812987 0.07634675 -0.14828056 0.08487904
0000b0 b3 7c 9f bd ba 03 14 3d 74 7b a5 3d 6a 15 0e 3e
       -0.07787456 0.036136366 0.080801874 0.13875356
0000c0 5a 43 13 3e 42 19 b1 bc a3 e4 10 be 92 02 93 bd
       0.14381161 -0.02161849 -0.14149718 -0.071782246
0000d0 49 59 44 bd c1 a6 6d bd 24 35 b5 bd 9e 69 ca bd
       -0.04793671 -0.058020357 -0.088480264 -0.09883426
0000e0 9b 4e 8a 3d ae ab 02 3d 6e 38 b7 bd f0 2f f4 3d
       0.06753274 0.031902008 -0.0894631 0.11923206
0000f0 9a d6 5f 3d ce 3d fa 3d d5 1b eb 3d 9d 53 f4 3d
       0.05464802 0.122188196 0.11479918 0.119300105
000100 7b 63 16 bd 07 31 b2 bc e9 84 c8 3c 57 83 56 3d
       -0.036715966 -0.021751894 0.024477439 0.05237135
000110 00 c1 d5 bd ce 52 b5 3d 54 47 5f 3c 55 22 81 bd
       -0.104372025 0.08853684 0.013627846 -0.063053764
000120 3e d0 c7 3a 7e bb be bd 68 7f e3 bd a0 b5 19 bd
       0.0015244556 -0.09313105 -0.11108285 -0.037526727
000130 59 24 41 bd 3d c5 0d be 4a 02 6f 3d a0 ab 9c 3a
       -0.047153804 -0.13844772 0.058351792 0.0011953004
000140 fc e9 87 3d 89 a1 3a be 3f a9 00 3e 24 62 35 bc
       0.06636426 -0.18225683 0.12564562 -0.011070762
000150 ec 88 f6 3d 14 53 91 bd 2a 9d 02 be 99 68 9f 3d
       0.120378345 -0.07095924 -0.12755266 0.07783622
000160 49 fd a0 3d 72 8a 3b 3e 9d 93 8d bc d7 25 f1 bd
       0.0786081 0.18314531 -0.017282302 -0.117747955
000170 04 9a cb 3d fd 85 c4 bd 38 21 26 3d 44 00 96 bd
       0.099414855 -0.09595869 0.040559024 -0.073242694
000180 fe d2 e6 ba 32 6b 00 3e c3 cb 2e 3d 3a 03 07 3a
       -0.0017610488 0.12540892 0.04267479 0.0005150322
000190 c0 65 ac 3d 01 50 a1 3d dc f5 b8 3d 9e 59 b7 bc
       0.08417845 0.07876588 0.09031269 -0.0223816
0001a0 53 d8 06 3d 12 fb 9e bd 05 42 bb 3d c1 d8 aa bd
       0.032921147 -0.077627316 0.091434516 -0.08342124
0001b0 01 c6 28 be e8 80 ca 3d 7c 9a 16 3e 11 98 25 bd
       -0.16481782 0.09887868 0.14707369 -0.040428225
0001c0 e3 b6 12 be 56 47 cc bd d1 91 e5 3c 8c 4b 0d be
       -0.14327578 -0.09974544 0.028023632 -0.1379835
0001d0 c4 80 44 bb ca 7b 01 3e 6f b4 32 be 96 30 fa 3b
       -0.0029983977 0.12644878 -0.17451642 0.0076351864
0001e0 26 10 0c be af 2a 8d 3b 48 fc 35 bd 27 74 af bd
       -0.13678035 0.004308067 -0.044430047 -0.08567076
0001f0 c5 ec 03 be 8a 06 e4 bd 4b 1d ac 3d 1c 5d 06 bd
       -0.12883289 -0.1113406 0.08404025 -0.03280364
000200 4e 8b 24 3d b8 af 27 3e cc ed f6 3d a2 e9 e2 3c
       0.040171914 0.16375625 0.12057075 0.027699295
000210 ff 48 33 bc 81 a0 d0 3c 0c f6 32 bd b1 a6 db 3c
       -0.010942697 0.02546716 -0.04369168 0.026812883
000220 92 56 26 3e 0a 8c 71 3c 6a 1d 81 bc 89 a7 d7 bd
       0.16243961 0.014742861 -0.015761096 -0.10530002
000230 20 b6 0f bc e9 98 87 3d 3b 12 03 3e 7b 5a 8c 3d
       -0.008771449 0.06620962 0.12799923 0.06853195
000240 d3 a9 07 3e e1 dc 21 be a3 19 55 3d d9 6c da bb
       0.13248377 -0.15806915 0.052026402 -0.0066658077
000250 e3 43 1c 3d c5 71 2c 3e aa 8a 2b 3e 99 2c b9 bd
       0.03815068 0.16840275 0.16752115 -0.090417095
000260 99 9d aa bd 2d 99 b0 bc e2 8d 9b bd f5 a9 06 3e
       -0.083308406 -0.021557415 -0.075954214 0.13150771
000270 fa 59 75 3c 62 53 61 3c af 0a 9b bd 03 a8 c6 3c
       0.014975065 0.01375279 -0.07570397 0.024250036
000280 3d 63 83 3d b7 f5 2e be 56 e7 21 be 48 0e ce ba
       0.064154126 -0.1708592 -0.15810904 -0.0015720809
000290 0c 87 6d 3c f6 83 4e 3d 88 4b 0a be c2 22 c4 3c
       0.01449753 0.050418817 -0.13505375 0.023942355
0002a0 0b 19 67 bc 9c 33 c5 bd 28 95 f0 bc 1a f1 ad bd
       -0.014105092 -0.09628984 -0.029367998 -0.08493252
0002b0 3e 4e 91 bd db c2 e7 3d 3b 52 1c be b9 da 22 3c
       -0.07095002 0.113164626 -0.15265743 0.009939843
0002c0 66 1b 53 bd cf dd 08 3e 88 02 57 3d 69 96 20 be
       -0.0515398 0.13365863 0.05249265 -0.15682377
0002d0 5c 41 66 3d 8b b9 c0 bd 8f b5 68 bd bc 4a 01 3d
       0.056214675 -0.094103895 -0.056813773 0.031565413
0002e0 70 a7 2f bd 24 c7 b1 3d 1f fb c5 3d 00 4a bc 3d
       -0.04288429 0.08680561 0.09667038 0.09193802
0002f0 90 9e 94 3d d6 f7 31 bc ba a6 b4 bd e2 0c 35 bd
       0.07256806 -0.010862311 -0.08820863 -0.04420174
000300 d2 b8 a9 3d 93 e7 31 bd 9b 16 da 3d 7c b8 04 be
       0.08287205 -0.043433737 0.10648843 -0.12961
000310 50 de 14 be fb 56 4b 3c 9a 72 06 3d 44 12 4b bd
       -0.1453793 0.0124108745 0.032824136 -0.049577966
000320 2a 85 95 bd 75 a8 c5 bd f1 b1 1a bb 7c 65 9f 3d
       -0.0730079 -0.09651271 -0.0023604596 0.077830285
000330 bb ec 0f bd 65 6f 21 be cf 89 a6 3d c8 96 b2 bc
       -0.035137873 -0.1576515 0.08131754 -0.021800414
000340 ea 9b 0b 3e 2d 6e 84 3d 95 e2 ed bd ad 25 bb 3c
       0.13633695 0.06466327 -0.11615483 0.022845114
000350 cd d7 d5 bd 92 fd 9b bd 83 9d eb bd bb aa 96 bd
       -0.10441551 -0.07616724 -0.11504652 -0.07356783
000360 6c 5c 0c 3d d1 d4 26 be d1 c6 10 3d c2 e3 67 3c
       0.034267828 -0.1629212 0.035345856 0.014153423
000370 11 56 da bd 2b 68 0c bd 93 e5 08 be a9 f8 b2 3d
       -0.10660947 -0.03427903 -0.13368826 0.087388344
000380 8d 0f eb 3c b2 f3 31 3d 77 c0 4d bc 75 40 4c 3b
       0.028693939 0.043445297 -0.012558094 0.003116635
000390 fe 6c 1d 3d 2d 12 c6 3d 17 dd dd bd 71 5f ce 3c
       0.03843402 0.096714355 -0.10833185 0.025191994
0003a0 79 35 c2 bd 77 a9 9a 3c a2 eb d7 bd 67 b3 0f be
       -0.09482855 0.018879635 -0.1054299 -0.1403328
0003b0 e9 88 ee 3d 61 e2 12 3d 1a 85 8d 3d 7d 76 3d be
       0.11647207 0.035860423 0.06910153 -0.18502231
0003c0 de f0 1f 3d a2 ac 84 3d 02 f0 74 bd 0b 90 16 be
       0.03904807 0.064782396 -0.0597992 -0.14703386
0003d0 6e 36 93 bd 58 26 c4 3d 7a 22 d2 bc 9d c2 c5 3d
       -0.07188116 0.09577626 -0.025651205 0.0965626
0003e0 b1 7a ad 3d 9f fc 24 3e e5 ed 34 bb 4f 66 05 3e
       0.08470667 0.16111992 -0.0027607617 0.13027309
0003f0 31 41 ff 3d fe 0a 7f bc ba 2a a9 3d e0 6e 5e bd
       0.12463606 -0.015566586 0.082601026 -0.054304957

model.7.bias f4 [10]
000000 0a d5 49 3c 6c d3 dd bd 86 50 c3 bc 26 a6 86 3d
       0.012318859 -0.10831341 -0.023842108 0.06574659
000010 c1 e0 cd bd ca fe 03 bd 84 71 c1 bc 2c ca 65 3d
       -0.10052634 -0.032225408 -0.023613699 0.05610101
000020 54 f7 a6 3d 7c e5 24 bd
       0.08152643 -0.040257916

exp_avg f4 [64, 784]
000000 b7 47 87 39 b7 47 87 39 b7 47 87 39 b7 47 87 39
       0.00025802638 0.00025802638 0.00025802638 0.00025802638
000010 b7 47 87 39 b7 47 87 39 b7 47 87 39 b7 47 87 39
       0.00025802638 0.00025802638 0.00025802638 0.00025802638
000020 b7 47 87 39 b7 47 87 39 b7 47 87 39 b7 47 87 39
       0.00025802638 0.00025802638 0.00025802638 0.00025802638
000030 37 46 87 39 50 27 87 39 50 27 87 39 5d 46 87 39
       0.0002580152 0.00025778497 0.00025778497 0.0002580163
000040 b7 47 87 39 b7 47 87 39 b7 47 87 39 b7 47 87 39
       0.00025802638 0.00025802638 0.00025802638 0.00025802638
000050 b7 47 87 39 b7 47 87 39 b7 47 87 39 b7 47 87 39
       0.00025802638 0.00025802638 0.00025802638 0.00025802638
000060 b7 47 87 39 b7 47 87 39 b7 47 87 39 b7 47 87 39
       0.00025802638 0.00025802638 0.00025802638 0.00025802638
000070 b7 47 87 39 b7 47 87 39 b7 47 87 39 b7 47 87 39
       0.00025802638 0.00025802638 0.00025802638 0.00025802638
000080 b7 47 87 39 b7 47 87 39 ba 47 87 39 92 f4 87 39
       0.00025802638 0.00025802638 0.00025802647 0.00025931426
000090 44 45 8b 39 ac dc 8a 39 74 fd 87 39 1f ff 87 39
       0.00026563753 0.00026485824 0.00025938044 0.00025939287
0000a0 81 c7 8d 39 3b 95 97 39 8f 06 92 39 9f 1f 8d 39
       0.00027042258 0.0002891215 0.00027852177 0.00026917175
0000b0 80 29 9f 39 d3 c3 8d 39 7e fc 86 39 0a 4f 87 39
       0.00030357763 0.00027039516 0.00025746593 0.00025808095
0000c0 67 e4 8c 39 2a 28 c4 39 41 bb cd 39 14 03 8d 39
       0.00026873054 0.00037413958 0.00039240162 0.0002689591
0000d0 b7 47 87 39 b7 47 87 39 b7 47 87 39 b7 47 87 39
       0.00025802638 0.00025802638 0.00025802638 0.00025802638
0000e0 b7 47 87 39 b7 47 87 39 b7 47 87 39 bb 47 87 39
       0.00025802638 0.00025802638 0.00025802638 0.0002580265
0000f0 26 4d 87 39 e4 47 87 39 39 7e 87 39 2e 12 96 39
       0.00025806687 0.0002580277 0.0002584325 0.00028623774
000100 bb b1 ad 39 d4 72 a7 39 1f 34 94 39 a9 34 59 39
       0.0003312955 0.00031938276 0.00028267593 0.0002071435
000110 9e 9a 40 39 e2 77 78 39 87 d1 85 39 cb 5f 57 39
       0.00018368146 0.00023695783 0.00025523847 0.00020539683
000120 07 85 91 39 e2 e7 9b 39 d0 8e 8a 39 14 f7 b2 39
       0.00027755668 0.0002973667 0.00026427815 0.00034134893
000130 f7 ac c4 39 4d 96 c1 39 cb 68 10 3a 5d f6 b3 39
       0.00037512902 0.0003692381 0.00055087794 0.00034325095
000140 86 8b 87 39 08 48 87 39 b7 47 87 39 b7 47 87 39
       0.0002585316 0.00025802874 0.00025802638 0.00025802638
000150 b7 47 87 39 b7 47 87 39 b7 47 87 39 45 47 87 39
       0.00025802638 0.00025802638 0.00025802638 0.00025802306
000160 7c 40 87 39 bf 4a 87 39 b0 cd 88 39 74 44 99 39
       0.0002579725 0.00025804897 0.0002609319 0.00029233436
000170 40 53 b0 39 a7 11 b5 39 d0 56 c6 39 58 ec 89 39
       0.00033631362 0.00034536162 0.00037830183 0.00026306766
000180 c0 64 94 39 4f ca a9 39 db 1c ae 39 e3 aa 3e 3a
       0.00028303824 0.00032384924 0.00033209365 0.0007273389
000190 d0 bf 16 3a 74 98 77 39 f4 2e 9e 39 ac 09 3f 39
       0.0005750628 0.00023612549 0.0003017109 0.00018218782
0001a0 d6 e3 58 39 97 90 bb 39 c5 53 05 3a f0 90 b1 39
       0.00020684241 0.00035775147 0.000508603 0.00033868058
0001b0 b2 4f 8f 39 04 7a 87 39 b7 47 87 39 b7 47 87 39
       0.00027334463 0.00025840115 0.00025802638 0.00025802638
0001c0 b7 47 87 39 b7 47 87 39 b7 47 87 39 0f 4a 87 39
       0.00025802638 0.00025802638 0.00025802638 0.00025804384
0001d0 da 3e 80 39 70 d4 0a 39 e2 03 00 39 29 55 8d 39
       0.0002446089 0.00013239845 0.00012208478 0.00026957065
0001e0 48 90 9e 39 3b eb be 39 a0 a2 b6 39 3f 00 63 39
       0.00030243606 0.00036414884 0.0003483491 0.00021648499
0001f0 c8 2c c5 39 24 4f 2e 3a c6 62 90 3a 21 34 46 3a
       0.00037608133 0.0006649366 0.0011015765 0.00075608684
000200 53 b0 0c 3a 90 69 aa 39 46 c2 d0 38 10 3b 33 b9
       0.00053668505 0.00032503577 9.954399e-05 -0.00017092773
000210 8a 38 1d 39 9a 48 c0 39 e3 a5 00 3a be 07 bf 39
       0.00014993749 0.00036675186 0.00049075315 0.00036436127
000220 66 49 86 39 a0 29 86 39 25 da 87 39 62 4c 87 39
       0.00025613158 0.00025589485 0.00025911737 0.00025806116
000230 b7 47 87 39 b7 47 87 39 a7 bb 87 39 fd 04 86 39
       0.00025802638 0.00025802638 0.00025889018 0.00025562188
000240 b6 a6 73 39 81 7d d8 38 9a 6f 87 38 fd 83 7f 37
       0.0002323639 0.000103230595 6.458089e-05 1.5229915e-05
000250 be 70 06 39 3e eb 06 39 97 c5 9f b7 0c c4 7a 39
       0.00012821236 0.0001286687 -1.9046287e-05 0.00023914891
000260 43 6f 82 3a ad 95 b7 3a 77 ec 9a 39 b5 89 2e b9
       0.0009951371 0.0014006399 0.0002954935 -0.00016645233
000270 d5 70 ff b8 d6 49 02 37 b5 ef 29 b9 ce f7 2b b9
       -0.00012180364 7.765795e-06 -0.00016206394 -0.00016400145
000280 f2 30 56 b8 12 d5 0e b9 a9 31 81 39 c5 85 5d 39
       -5.106716e-05 -0.0001362155 0.00024641797 0.00021126035
000290 93 98 52 39 48 88 b8 39 9d d2 af 39 66 49 88 39
       0.00020083999 0.00035196752 0.0003353552 0.00025994628
0002a0 b7 47 87 39 b7 47 87 39 b8 47 87 39 b5 c4 85 39
       0.00025802638 0.00025802638 0.0002580264 0.00025514295
0002b0 7c fa 78 39 5f 40 8b 38 ee a9 6f b8 50 eb db b8
       0.00023744436 6.6400265e-05 -5.71403e-05 -0.00010486564
0002c0 0d b9 7f 39 50 69 e8 39 e6 f0 44 3a 8d 30 89 3a
       0.00024387632 0.00044328952 0.00075127033 0.001046674
0002d0 6d 98 ce 3a 1f dc ba 3a 4d 2e 26 39 3c f9 4c ba
       0.0015761979 0.0014256275 0.00015848242 -0.0007819121
0002e0 ec 04 0c ba 83 53 0f 38 39 1f 44 b8 60 ef d5 b9
       -0.00053413096 3.4171633e-05 -4.675912e-05 -0.00040804874
0002f0 a6 00 3d b9 b4 ee d7 b9 38 63 8e b9 5b 21 5d 39
       -0.00018024686 -0.00041185843 -0.00027158274 0.00021088628
000300 e8 4e fb 39 e4 f4 0d 3a 3d b1 95 39 83 74 94 39
       0.0004793324 0.00054152147 0.00028551547 0.00028315568
000310 b7 47 87 39 b7 47 87 39 9e 47 87 39 b3 d7 7b 39
       0.00025802638 0.00025802638 0.00025802566 0.0002401758
000320 0c f8 e7 38 85 eb c7 b8 04 f1 3b b9 3b bf 38 b8
       0.00011061141 -9.5329284e-05 -0.00017923495 -4.4047116e-05
000330 f0 6c 18 39 44 4b d3 39 ad 99 28 3a b1 25 73 3a
       0.00014536432 0.00040301133 0.0006431591 0.0009275331
000340 f4 89 7f 3a c4 c4 09 3a 48 2b dc 38 9b 13 4c 39
       0.00097480346 0.00052554556 0.00010498479 0.0001946226
000350 9b 2b fb 39 d5 dd 30 3a ba 63 ce b9 ac ef 2e ba
       0.0004790694 0.0006746923 -0.00039365684 -0.0006673287
000360 36 c2 e1 b8 f4 a0 9a b9 9c 45 73 b7 cf c4 02 3a
       -0.00010765011 -0.00029493088 -1.4500136e-05 0.0004988433
000370 a8 5d 22 3a 20 c2 e3 39 54 9a 99 39 d2 88 8f 39
       0.00061937654 0.00043441448 0.00029297417 0.00027377025
000380 b7 47 87 39 d8 43 87 39 f6 b8 87 39 e3 a3 59 39
       0.00025802638 0.00025799754 0.00025887013 0.00020755785
000390 7e 91 d2 38 6c 7d 03 37 4c 0c 32 b9 89 33 22 b9
       0.0001004068 7.8374105e-06 -0.00016979984 -0.00015468722
0003a0 3e 17 b2 38 25 e1 98 39 73 fe d2 39 46 c9 92 39
       8.4920306e-05 0.00029159445 0.000402439 0.0002799725
0003b0 07 71 38 38 ae 6d 9b b7 19 06 0c 3a ba 88 9a 3a
       4.3974283e-05 -1.8528513e-05 0.0005341485 0.0011790015
0003c0 c9 df b0 3a 1b 1c 1a 3a bb 36 2a ba 52 2d 22 ba
       0.0013494428 0.0005878822 -0.0006493141 -0.0006186563
0003d0 52 91 01 b8 07 80 3e 39 6b db 3b 39 3f 75 b7 38
       -3.0891337e-05 0.00018167506 0.0001791545 8.747959e-05
0003e0 25 62 02 39 07 60 3e 39 09 88 a7 39 40 b9 85 39
       0.00012434328 0.00018155585 0.00031954076 0.0002550576
0003f0 b7 47 87 39 51 42 87 39 97 7b 87 39 3a 70 8c 39
       0.00025802638 0.00025798616 0.00025841288 0.00026786496

exp_avg_sq f4 [64, 784]
000000 37 50 da 34 37 50 da 34 37 50 da 34 37 50 da 34
       4.0664028e-07 4.0664028e-07 4.0664028e-07 4.0664028e-07
000010 37 50 da 34 37 50 da 34 37 50 da 34 37 50 da 34
       4.0664028e-07 4.0664028e-07 4.0664028e-07 4.0664028e-07
000020 37 50 da 34 37 50 da 34 37 50 da 34 37 50 da 34
       4.0664028e-07 4.0664028e-07 4.0664028e-07 4.0664028e-07
000030 3f fd da 34 5d 53 dc 34 48 6c da 34 54 51 da 34
       4.0789925e-07 4.1038848e-07 4.068445e-07 4.0664838e-07
000040 37 50 da 34 37 50 da 34 37 50 da 34 37 50 da 34
       4.0664028e-07 4.0664028e-07 4.0664028e-07 4.0664028e-07
000050 37 50 da 34 37 50 da 34 37 50 da 34 37 50 da 34
       4.0664028e-07 4.0664028e-07 4.0664028e-07 4.0664028e-07
000060 37 50 da 34 37 50 da 34 37 50 da 34 37 50 da 34
       4.0664028e-07 4.0664028e-07 4.0664028e-07 4.0664028e-07
000070 37 50 da 34 37 50 da 34 37 50 da 34 37 50 da 34
       4.0664028e-07 4.0664028e-07 4.0664028e-07 4.0664028e-07
000080 e9 4f da 34 7e 2c da 34 93 b0 d9 34 b1 d7 d9 34
       4.0663807e-07 4.0638037e-07 4.0547874e-07 4.0576336e-07
000090 96 c2 d8 34 33 7e d6 34 f6 97 d4 34 6c 98 d4 34
       4.0374715e-07 3.9952428e-07 3.9598643e-07 3.959898e-07
0000a0 0c 17 da 34 b4 42 df 34 84 9c e3 34 84 28 db 34
       4.0622433e-07 4.158552e-07 4.2395925e-07 4.0821408e-07
0000b0 b2 a3 d9 34 41 c9 da 34 8a 64 dd 34 a7 bd da 34
       4.0538504e-07 4.0752096e-07 4.123761e-07 4.0743654e-07
0000c0 ab 5c d6 34 4e 33 db 34 f0 d1 df 34 41 d1 db 34
       3.992803e-07 4.0829258e-07 4.1689736e-07 4.094418e-07
0000d0 37 50 da 34 37 50 da 34 37 50 da 34 37 50 da 34
       4.0664028e-07 4.0664028e-07 4.0664028e-07 4.0664028e-07
0000e0 37 50 da 34 37 50 da 34 37 50 da 34 06 92 da 34
       4.0664028e-07 4.0664028e-07 4.0664028e-07 4.071191e-07
0000f0 02 5b da 34 c5 c8 d9 34 b1 f1 d6 34 40 30 de 34
       4.067188e-07 4.056548e-07 4.003646e-07 4.138583e-07
000100 f5 7d de 34 58 b1 d7 34 37 f3 df 34 81 d9 e1 34
       4.1442368e-07 4.0175905e-07 4.171395e-07 4.206777e-07
000110 bf ae e9 34 1f d9 f3 34 00 37 fb 34 28 6f e3 34
       4.3526776e-07 4.5420254e-07 4.679241e-07 4.2362922e-07
000120 84 8e e0 34 b5 95 e5 34 c7 7a eb 34 a3 9c e3 34
       4.1826945e-07 4.27635e-07 4.3861493e-07 4.2396013e-07
000130 05 eb e2 34 80 1d e6 34 ca bc eb 34 9e 91 db 34
       4.226678e-07 4.2862303e-07 4.3909523e-07 4.089788e-07
000140 f2 76 da 34 37 a1 da 34 37 50 da 34 37 50 da 34
       4.0692208e-07 4.0722963e-07 4.0664028e-07 4.0664028e-07
000150 37 50 da 34 37 50 da 34 37 50 da 34 d1 39 db 34
       4.0664028e-07 4.0664028e-07 4.0664028e-07 4.0833996e-07
000160 64 87 da 34 7e 2c d8 34 26 6e da 34 48 c0 e1 34
       4.0704174e-07 4.0265508e-07 4.0685808e-07 4.204942e-07
000170 93 ea df 34 7c ca df 34 00 fd ff 34 00 a7 02 35
       4.1707662e-07 4.1684314e-07 4.7681533e-07 4.867179e-07
000180 7f 7d 03 35 d5 37 15 35 02 86 20 35 0e 74 24 35
       4.8983924e-07 5.558807e-07 5.979965e-07 6.126364e-07
000190 d1 d9 1f 35 2b 60 15 35 1e 63 13 35 c6 91 1c 35
       5.954908e-07 5.564677e-07 5.4906e-07 5.8326657e-07
0001a0 87 c4 12 35 53 fd 03 35 ca f2 e3 34 60 4b da 34
       5.4675223e-07 4.916994e-07 4.2458697e-07 4.0660507e-07
0001b0 4f bc d9 34 3d 9c da 34 bc 51 da 34 37 50 da 34
       4.0556412e-07 4.0719343e-07 4.0665134e-07 4.0664028e-07
0001c0 37 50 da 34 63 52 da 34 15 36 da 34 00 d8 d9 34
       4.0664028e-07 4.0665608e-07 4.0645014e-07 4.057656e-07
0001d0 ad a0 da 34 d2 21 d5 34 05 3f df 34 a9 d2 eb 34
       4.072257e-07 3.969895e-07 4.158284e-07 4.3925436e-07
0001e0 83 85 ea 34 f8 1a 03 35 c5 a9 27 35 8d 06 2d 35
       4.368304e-07 4.884055e-07 6.2459395e-07 6.4457055e-07
0001f0 e7 51 4f 35 1f a1 77 35 b3 e2 8b 35 8f 8e 8f 35
       7.723269e-07 9.224913e-07 1.0422285e-06 1.069582e-06
000200 e0 9d 8b 35 b5 ef 80 35 e2 ed 5e 35 0f d8 58 35
       1.0402255e-06 9.606507e-07 8.304761e-07 8.0780677e-07
000210 bd 8c 53 35 d9 74 35 35 f8 1a 10 35 4d f7 f4 34
       7.8808426e-07 6.759779e-07 5.3683425e-07 4.5628477e-07
000220 fe e1 e4 34 c9 f3 e1 34 e1 f5 dd 34 ae 7b da 34
       4.263274e-07 4.2086893e-07 4.1343358e-07 4.0695653e-07
000230 37 50 da 34 37 50 da 34 63 38 da 34 73 38 db 34
       4.0664028e-07 4.0664028e-07 4.064669e-07 4.0833e-07
000240 ed 8a e2 34 d5 d1 e5 34 17 e3 f5 34 9f 14 00 35
       4.2196862e-07 4.2807247e-07 4.5800036e-07 4.7713723e-07
000250 e0 e4 11 35 e6 e8 49 35 71 65 7a 35 7c 0f a4 35
       5.4349766e-07 7.5217247e-07 9.3279874e-07 1.2223459e-06
000260 b0 fc e2 35 6e 3b 08 36 12 27 11 36 6d f9 10 36
       1.6911854e-06 2.0300172e-06 2.1629426e-06 2.1602857e-06
000270 8d d6 10 36 a4 c0 fe 35 56 89 c6 35 01 ce ba 35
       2.1582557e-06 1.898054e-06 1.479212e-06 1.3918035e-06
000280 43 f2 9f 35 1f 39 80 35 0a 7d 49 35 a4 85 1f 35
       1.1916931e-06 9.553368e-07 7.506029e-07 5.942659e-07
000290 d5 9c 08 35 fa 7e ec 34 50 04 db 34 e2 63 da 34
       5.089217e-07 4.4050813e-07 4.0795067e-07 4.0678339e-07
0002a0 37 50 da 34 32 50 da 34 a7 27 da 34 07 08 e1 34
       4.0664028e-07 4.0664014e-07 4.0634515e-07 4.1915357e-07
0002b0 2d 83 f7 34 0d cb fb 34 8e 81 1d 35 75 0a 31 35
       4.6102778e-07 4.6900132e-07 5.8675585e-07 6.5952855e-07
0002c0 ef f6 71 35 cd ff aa 35 7f 69 00 36 ca 18 35 36
       9.013883e-07 1.2740435e-06 1.9134893e-06 2.698553e-06
0002d0 92 20 6c 36 22 56 84 36 5c d4 9b 36 37 53 9f 36
       3.5185699e-06 3.9439337e-06 4.644082e-06 4.7482567e-06
0002e0 9b 6f 93 36 51 cc 7e 36 71 9a 45 36 08 31 1f 36
       4.393934e-06 3.7967877e-06 2.9445184e-06 2.3721386e-06
0002f0 19 17 00 36 8f ea c6 35 8a 7e 9f 35 dd 07 71 35
       1.908693e-06 1.4820415e-06 1.1883251e-06 8.979094e-07
000300 bf 07 18 35 7e 57 f6 34 46 2d dc 34 a3 22 db 34
       5.6635685e-07 4.588473e-07 4.1011134e-07 4.081713e-07
000310 d2 4f da 34 23 59 da 34 a8 46 da 34 1c e7 e0 34
       4.066374e-07 4.067052e-07 4.0657073e-07 4.1891406e-07
000320 c0 d3 03 35 63 d8 10 35 ad 33 40 35 2e 0b 69 35
       4.910944e-07 5.3959064e-07 7.160077e-07 8.681553e-07
000330 2d d6 bf 35 d9 58 18 36 f9 e5 6e 36 21 04 8c 36
       1.4292942e-06 2.2701481e-06 3.5598625e-06 4.172806e-06
000340 fe 64 9a 36 f4 88 d2 36 54 89 12 37 a5 06 1c 37
       4.6013147e-06 6.274431e-06 8.734252e-06 9.299872e-06
000350 b4 c0 0c 37 a5 66 cb 36 51 48 8b 36 18 37 59 36
       8.3895175e-06 6.061821e-06 4.1509415e-06 3.2367589e-06
000360 3b dd 39 36 80 84 14 36 62 23 dd 35 a4 86 95 35
       2.7695921e-06 2.2130844e-06 1.6476081e-06 1.1140551e-06
000370 33 e1 2f 35 30 61 02 35 b4 89 e7 34 5e a9 da 34
       6.552029e-07 4.85702e-07 4.3127295e-07 4.0728895e-07
000380 9b 67 da 34 43 1e da 34 1c fe dc 34 12 74 e5 34
       4.0681047e-07 4.0627683e-07 4.1163082e-07 4.2739026e-07
000390 c9 b1 0c 35 ea 27 28 35 de c1 68 35 48 7b a1 35
       5.2412776e-07 6.264296e-07 8.670885e-07 1.2031314e-06
0003a0 ce 55 02 36 b3 55 67 36 85 6b 90 36 52 c0 9d 36
       1.9421454e-06 3.4471566e-06 4.3040513e-06 4.7013536e-06
0003b0 5c de bd 36 ae bf 04 37 13 b7 0e 37 4c 12 05 37
       5.658525e-06 7.912442e-06 8.506485e-06 7.931678e-06
0003c0 f9 48 f5 36 68 3a c2 36 5d ae a5 36 c6 fb 84 36
       7.310064e-06 5.78845e-06 4.9376818e-06 3.963217e-06
0003d0 a8 31 79 36 5b 36 3d 36 82 82 f7 35 25 2e 9e 35
       3.7132795e-06 2.8194834e-06 1.8440917e-06 1.1785347e-06
0003e0 c4 dc 55 35 1f 3f 0f 35 8f 9f ee 34 44 83 dc 34
       7.966994e-07 5.3363505e-07 4.444705e-07 4.1073702e-07
0003f0 3e 43 da 34 d1 a5 da 34 7f 1a db 34 a7 4e e8 34
       4.065459e-07 4.0726312e-07 4.0811207e-07 4.3270595e-07

exp_avg f4 [64]
000000 ca 72 1f ba 92 9e c3 b9 3b dc 36 ba 38 ec 10 35
       -0.00060824736 -0.00037311442 -0.0006975566 5.3987924e-07
000010 4c ed 1d ba ff bf ba 39 c8 64 6f b9 5f f6 aa 39
       -0.00060244347 0.00035619733 -0.0002283036 0.00032608488
000020 0f c6 c3 b9 c2 dc 50 ba 00 ec 2a ba 66 c7 7e b9
       -0.00037340863 -0.0007967466 -0.0006520152 -0.0002429761
000030 17 33 ef b8 76 03 0f ba b4 43 14 ba 53 f1 98 ba
       -0.00011405924 -0.0005455533 -0.00056558405 -0.00116686
000040 c1 fa a4 b9 4c 54 80 b9 05 5f 46 3a a9 2c ee 39
       -0.00031467344 -0.0002447687 0.00075672596 0.00045428172
000050 97 35 38 b9 c4 34 51 3a 2d f7 a0 37 2e 87 7e 39
       -0.00017567571 0.000798058 1.9188587e-05 0.00024273686
000060 af 31 4f b8 6a a4 1c b9 80 56 d1 b8 5c 24 b2 b9
       -4.9398917e-05 -0.00014938568 -9.9820085e-05 -0.00033977896
000070 f3 4c 50 3a f1 3d cc 39 22 56 bd ba a6 88 a0 b9
       0.00079460366 0.00038956062 -0.0014445225 -0.0003061939
000080 87 56 1b ba 11 9e 0b 3a c9 d3 c4 39 1c 2b 32 39
       -0.00059256743 0.0005325983 0.00037541825 0.00016991462
000090 08 2d d2 39 d8 ec d4 39 a6 a2 bd 3a 58 00 5f 39
       0.00040087872 0.00040612253 0.0014468029 0.00021267065
0000a0 d6 2e e3 b8 f1 5b df 39 14 16 02 39 73 7f ee 39
       -0.000108329274 0.00042602376 0.00012405991 0.00045489855
0000b0 4c 09 86 38 dd c2 a9 b9 d2 3d 15 3a 8d 21 d3 38
       6.3913496e-05 -0.00032379376 0.0005693111 0.00010067513
0000c0 93 de bd 39 d3 2a 28 3a a2 ef cc b8 8d 31 a9 b9
       0.0003621472 0.0006415073 -9.772113e-05 -0.0003227111
0000d0 7b 6f 75 3a f3 ef 63 b9 f9 f4 e9 b9 b4 f4 67 ba
       0.000936262 -0.00021737795 -0.00044623742 -0.0008848414
0000e0 e5 89 fa 39 32 56 58 b8 cc 50 62 39 46 78 9b 39
       0.00047786455 -5.157869e-05 0.00021583139 0.00029653515
0000f0 05 3d 59 3a 41 f9 42 ba 9c 00 26 b9 eb bb bb b9
       0.00082869857 -0.00074376544 -0.0001583122 -0.0003580743

exp_avg_sq f4 [64]
000000 9c a4 17 36 5a eb bb 35 df 57 5a 36 f3 14 45 36
       2.2596569e-06 1.4001082e-06 3.253568e-06 2.9367482e-06
000010 39 5d 31 36 2f bc f0 35 0d bd 4c 36 a7 db 00 36
       2.6429318e-06 1.7936162e-06 3.050841e-06 1.920134e-06
000020 a6 6e 2e 36 37 cb 4a 36 77 fc 4b 36 aa df cc 35
       2.5992426e-06 3.0218632e-06 3.039631e-06 1.5264279e-06
000030 9a db 0b 36 a7 1a d2 35 d3 e5 23 36 e2 13 10 36
       2.084044e-06 1.5653976e-06 2.4422668e-06 2.1469245e-06
000040 26 37 05 36 a7 4c f0 35 15 73 6a 36 95 f8 3f 36
       1.9850645e-06 1.7903702e-06 3.4935704e-06 2.8605912e-06
000050 47 ad 53 36 53 c1 5b 36 ce 28 4e 36 6b 50 0e 36
       3.154231e-06 3.2746073e-06 3.0720144e-06 2.1206458e-06
000060 02 d6 47 36 77 4d 1d 36 de 2d ba 35 48 41 0b 36
       2.977788e-06 2.3439914e-06 1.3871429e-06 2.0750613e-06
000070 a2 9a 28 36 56 f4 06 36 a2 25 24 36 cb c4 01 36
       2.512396e-06 2.0109778e-06 2.445981e-06 1.9337047e-06
000080 fa ae b7 35 c5 84 03 36 c5 78 9e 35 c9 62 a7 35
       1.3685487e-06 1.9597803e-06 1.1807066e-06 1.247122e-06
000090 27 66 08 36 c4 88 42 36 97 59 15 36 4d 2b 3c 36
       2.032504e-06 2.898786e-06 2.2254878e-06 2.8039387e-06
0000a0 d7 86 df 35 4e 10 01 36 70 20 0b 36 54 48 03 36
       1.6654038e-06 1.9231989e-06 2.0731495e-06 1.9562622e-06
0000b0 1d 77 40 36 44 66 43 36 c1 cd 8b 35 a8 a2 0b 36
       2.8679563e-06 2.911679e-06 1.0416189e-06 2.0807292e-06
0000c0 d7 b9 82 36 56 06 46 36 00 00 2c 36 ab 32 22 36
       3.8959365e-06 2.9507987e-06 2.5629997e-06 2.4169374e-06
0000d0 e3 99 30 36 3b c0 3e 35 8c 4d 36 36 29 61 45 36
       2.6315618e-06 7.106025e-07 2.7165252e-06 2.9411842e-06
0000e0 7c 93 24 36 05 11 10 36 27 e1 dc 35 0e 5d 0c 36
       2.4523752e-06 2.1467579e-06 1.6456805e-06 2.091579e-06
0000f0 bb dc 7a 36 d7 e5 4d 36 89 97 10 36 1d a1 13 36
       3.7381385e-06 3.0681165e-06 2.1545877e-06 2.1998487e-06
